models/novelty_gan_MNIST_replay_False_best_discriminator.model (torch, 54737 bytes, 21 tensors)

discriminator.0.weight f4 [4, 1, 3, 3]
0.13270278 -0.30515411 -0.087058075 0.038393207 -0.27995852 0.26084825 0.08942271 -0.222637
-0.04511717 0.13830212 -0.015467504 0.16852224 0.25384727 0.045096748 0.27115437 -0.11104482
0.17189282 0.06834959 -0.21448426 -0.31784087 0.041880846 -0.23674159 -0.23958361 0.20514165
0.08992051 -0.14940444 -0.040902972 -0.283401 0.22455919 -0.1874333 -0.057317954 -0.1813605
-0.11658455 -0.19328387 -0.26745996 -0.1215338
00000000: 3de3 073e 293d 9cbe 814b b2bd 3242 1d3d
00000010: b956 8fbe e78d 853e 4123 b73d f4fa 63be
00000020: c8cc 38bd 129f 0d3e 6a6b 7dbc 1891 2c3e
00000030: 45f8 813e 5eb7 383d bfd4 8a3e 776b e3bd
00000040: ac04 303e dffa 8b3d c3a1 5bbe 0abc a2be
00000050: 408b 2b3d 636c 72be 6855 75be a710 523e
00000060: 3f28 b83d 7afd 18be e089 27bd f019 91be
00000070: d8f2 653e 84ee 3fbe 3bc6 6abd 91b6 39be
00000080: e1c3 eebd 35ec 45be 83f0 88be b7e6 f8bd

discriminator.1.weight f4 [4]
0.9945673 1.0081457 1.0023254 0.9965697
00000000: f69b 7e3f eb0a 813f 334c 803f 311f 7f3f

discriminator.1.bias f4 [4]
-0.0037326007 0.011943321 0.0040746205 -0.0033206132
00000000: a69e 74bb ebad 433c 6584 853b a59e 59bb

discriminator.1.running_mean f4 [4]
-0.00023792466 0.00056310906 -0.00048999186 -0.0006728944
00000000: 6a7b 79b9 9c9d 133a cc72 00ba 2e65 30ba

discriminator.1.running_var f4 [4]
0.15774728 0.520097 0.50903636 0.71541756
00000000: 8188 213e 1425 053f 3550 023f 9b25 373f

discriminator.3.weight f4 [8, 4, 4, 4]
0.11245388 -0.031974494 0.08454385 -0.11129214 -0.057867974 -0.09804009 -0.090686426 0.11228476
0.030072825 -0.09347776 0.0041216146 0.13419119 -0.102097034 -0.074344575 0.04904263 0.104222186
-0.0384684 0.06476269 0.08144162 -0.008698294 0.0829837 0.07929428 0.11547256 0.10685769
-0.03786407 0.07169113 0.022988237 0.033211254 -0.042701527 0.05399446 -0.07770721 -0.047827408
0.013578416 -0.025592279 -0.0016228039 0.03777201 -0.014829947 -0.036989395 0.028265765 -0.114660785
0.03421026 0.036550418 0.019646758 -0.040696137 0.08213184 0.05360054 -0.10529573 0.037549566
0.0024960781 0.033274148 0.081236 -0.01419699 0.041033715 -0.046918664 0.11263402 0.05468632
-0.076296814 0.059524212 -0.12254285 0.08967352 0.033354737 -0.11812847 0.050871015 -0.08456538
0.06535002 0.077071354 -0.052451666 0.0077711996 0.002109997 -0.112284854 -0.08227497 0.041501008
-0.05146354 -0.10008584 -0.0348127 0.12395408 -0.10614235 0.05071585 0.08103811 0.10795178
0.055256076 -0.062476363 0.1127884 -0.109549366 -0.12717277 0.013471187 -0.033005014 -0.048934467
-0.12016466 -0.04705572 0.047743585 -0.06488325 -0.029702961 -0.04058774 -0.091611445 -0.020016925
0.089291975 0.10242667 0.07534311 -0.08076157 -0.06338201 0.017883357 0.0887978 -0.07716118
0.025252314 -0.029771255 -0.016075006 0.04730782 0.116318054 0.07092397 -0.005427897 0.08732111
0.019001877 -0.036740106 -0.044782516 0.03732884 -0.052132014 -0.020725755 -0.00785366 0.113231264
-0.07077076 -0.0135702165 0.058501545 -0.053525917 0.07033651 -0.087485775 0.11410679 0.057374015
-0.10803406 0.08714621 -0.035302896 0.07956999 0.012499754 0.044331785 -0.082500726 0.12079239
-0.044236522 -0.07972774 -0.016384095 0.04097369 0.080687754 -0.06002518 0.030920163 0.10571858
-0.08411538 0.029521758 0.05458956 -0.007080302 0.07127935 0.032273304 0.10804893 0.016893696
-0.018215735 0.06467884 -0.01345508 -0.10370186 0.04735268 -0.095178194 -0.040819146 0.07983878
-0.0379654 -0.06758748 0.10970528 0.03395422 -0.0608577 -0.08626649 0.10414587 0.038168326
0.11347617 -0.11050931 -0.072575726 -0.049325295 -0.07215932 -0.02827392 0.12302001 0.0309134
0.020956386 -0.034651555 0.113635585 0.0017371464 -0.11572887 -0.0058460333 0.033660654 0.005482762
0.10606539 0.015209468 -0.00036873846 -0.09209515 0.08116344 -0.049517415 0.016059581 -0.07766752
-0.002587555 -0.038236447 -0.048253547 -0.07222319 0.012787784 0.040415026 0.01290408 0.087015666
-0.056912746 -0.03552291 0.09014233 0.070311956 0.040467713 0.00021961474 0.08302452 -0.108614534
-0.097568855 -0.00880965 -0.029764917 -0.0046167257 0.09235866 -0.012506743 0.056372575 -0.008449497
0.0023465015 0.029173926 0.031320754 -0.01445923 -0.030717837 0.05952174 -0.003343233 -0.033106275
-0.0074141095 0.08064191 -0.0857871 -0.09220032 -0.0321162 0.10761577 -0.045551166 -0.028583517
-0.06620382 -0.11116077 -0.013355414 0.06313786 -0.06883045 -0.06982243 0.06593199 -0.09154288
-0.054889265 -0.06683435 -0.028809657 -0.053489476 -0.06397725 0.073193185 -0.012720278 0.06930388
-0.07573607 -0.029144373 -0.08888088 0.0062178727 0.033136893 0.00040277987 0.0405064 -0.063297786
00000000: 384e e63d b0f7 02bd 5325 ad3d 22ed e3bd
00000010: f806 6dbd 3ec9 c8bd ceb9 b9bd 8df5 e53d
00000020: 495b f63c 4571 bfbd 9c0e 873b 6a69 093e
00000030: 4018 d1bd f841 98bd ede0 483d 7172 d53d
00000040: 0a91 1dbd 4da2 843d ddca a63d 4a83 0ebc
00000050: 5cf3 a93d 0a65 a23d e17c ec3d 34d8 da3d
00000060: 5b17 1bbd cdd2 923d d451 bc3c 8608 083d
00000070: cce7 2ebd 4b29 5d3d f524 9fbd ace6 43bd
00000080: 0178 5e3c e6a6 d1bc 43b4 d4ba d3b6 1a3d
00000090: 4ef9 72bc 3182 17bd 9b8d e73c 46d3 eabd
000000a0: 0f20 0c3d e4b5 153d 3df2 a03c feb0 26bd
000000b0: bd34 a83d 3d8c 5b3d 4aa5 d7bd 93cd 193d
000000c0: 3e95 233b 794a 083d 0f5f a63d 7e9a 68bc
000000d0: f812 283d c92d 40bd aaac e63d c3fe 5f3d
000000e0: 8141 9cbd a9cf 733d bff7 fabd c0a6 b73d
000000f0: fa9e 083d 57ed f1bd 205e 503d 9d30 adbd
00000100: 3bd6 853d 96d7 9d3d 8fd7 56bd 8ca5 fe3b
00000110: e047 0a3b 9af5 e5bd c87f a8bd f6fc 293d
00000120: 6fcb 52bd cef9 ccbd c397 0ebd a3db fd3d
00000130: 2961 d9bd 6cbb 4f3d 4ff7 a53d d315 dd3d
00000140: 3254 623d 37e7 7fbd 9bfd e63d 6b5b e0bd
00000150: 9439 02be 41b6 5c3c 4430 07bd 826f 48bd
00000160: e418 f6bd 80bd 40bd c78e 433d 82e1 84bd
00000170: a053 f3bc 543f 26bd c89e bbbd 89fa a3bc
00000180: b6de b63d 13c5 d13d 7d4d 9a3d 5266 a5bd
00000190: 6dce 81bd 1e80 923c 9fdb b53d ae06 9ebd
000001a0: f1dd ce3c d9e2 f3bc bbaf 83bc d8c5 413d
000001b0: 2938 ee3d 9640 913d 80dc b1bb 69d5 b23d
000001c0: d3a9 9b3c cb7c 16bd df6d 37bd 20e6 183d
000001d0: 6188 55bd 0fc9 a9bc a3ac 00bc cbe5 e73d
000001e0: 43f0 90bd 9d55 5ebc 519f 6f3d fe3d 5bbd
000001f0: 970c 903d be2b b3bd d2b0 e93d 0401 6b3d
00000200: f640 ddbd b679 b23d c599 10bd 97f5 a23d
00000210: c5cb 4c3c 3f95 353d 24f6 a8bd 0062 f73d
00000220: 5b31 35bd 4c48 a3bd f037 86bc 07d4 273d
00000230: 9f3f a53d f7dc 75bd 484c fd3c fc82 d83d
00000240: af44 acbd 9dd7 f13c 4d99 5f3d e101 e8bb
00000250: e8fa 913d 0331 043d c248 dd3d a664 8a3c
00000260: 2a39 95bc 5776 843d b272 5cbc a461 d4bd
00000270: e2f4 413d c9ec c2bd fa31 27bd 8482 a33d
00000280: 9b81 1bbd 4e6b 8abd 29ad e03d 9513 0b3d
00000290: ec45 79bd 7cac b0bd 6e4a d53d 6456 1c3d
000002a0: 3266 e83d b552 e2bd 95a2 94bd 5209 4abd
000002b0: 44c8 93bd b59e e7bc eaf1 fb3d 193e fd3c
000002c0: baac ab3c caee 0dbd c6b9 e83d f6b0 e33a
000002d0: 4203 edbd 1590 bfbb c1df 093d bea8 b33b
000002e0: d038 d93d 2231 793c 3d53 c1b9 629c bcbd
000002f0: 0539 a63d c6d2 4abd 628f 833c 2610 9fbd
00000300: f893 29bb d29d 1cbd 83a5 45bd c0e9 93bd
00000310: db83 513c 3a8a 253d a26b 533c 4535 b23d
00000320: 571d 69bd 7980 11bd 8b9c b83d b7ff 8f3d
00000330: 79c1 253d 6248 6639 c208 aa3d 4c71 debd
00000340: 2ed2 c7bd 5a56 10bc 8ed5 f3bc e747 97bb
00000350: 8a26 bd3d 15e9 4cbc eee6 663d c26f 0abc
00000360: c3c7 193b 28fe ee3c 314a 003d 68e6 6cbc
00000370: f9a3 fbbc 11cd 733d 241a 5bbb 729a 07bd
00000380: 0ff2 f2bb 9627 a53d 26b1 afbd 85d3 bcbd
00000390: 478c 03bd a865 dc3d dc93 3abd fb27 eabc
000003a0: de95 87bd 42a8 e3bd abd0 5abc 6c4e 813d
000003b0: fbf6 8cbd 10ff 8ebd 5a07 873d d57a bbbd
000003c0: 91d3 60bd 73e0 88bd 3b02 ecbc c817 5bbd
000003d0: 8106 83bd 4fe6 953d b768 50bc 31ef 8d3d
000003e0: 831b 9bbd 2ec0 eebc 2e07 b6bd 4cbf cb3b
000003f0: 8dba 073d 332c d339 0aea 253d 45a2 81bd

discriminator.4.weight f4 [8]
0.9930947 1.0010657 0.99493027 0.9949348 1.0044382 1.0081452 0.9927666 1.0063918
00000000: 743b 7e3f ec22 803f c0b3 7e3f 0cb4 7e3f
00000010: 6e91 803f e70a 813f f425 7e3f 72d1 803f

discriminator.4.bias f4 [8]
-0.007967857 0.0083793355 0.008301328 -0.004974603 0.007327387 0.011132542 0.0075932434 0.0062810765
00000000: 9d8b 02bc 7b49 093c 4b02 083c ff01 a3bb
00000010: 941a f03b 4465 363c bed0 f83b 7dd1 cd3b

discriminator.4.running_mean f4 [8]
0.14348117 -0.010891167 0.08070007 -0.1581904 -0.17272657 -0.09555644 0.13650014 -0.15174949
00000000: baec 123e de70 32bc 1446 a53d aafc 21be
00000010: 3cdf 30be 18b3 c3bd b1c6 0b3e 3864 1bbe

discriminator.4.running_var f4 [8]
0.1845886 0.27497184 0.038168028 0.05840407 0.04210297 0.029051246 0.08272082 0.058524504
00000000: cb04 3d3e 1cc9 8c3e 1456 1c3d 1b39 6f3d
00000010: 2a74 2c3d e1fc ed3c 8969 a93d 64b7 6f3d

discriminator.6.weight f4 [16, 8, 4, 4]
0.056210794 -0.021959376 0.0029122487 -0.07996697 0.002688475 0.078242876 0.07879487 -0.024831537
0.07678958 0.07850192 -0.055070125 -0.041400354 -0.06754933 0.025454415 -0.020692414 0.026542643
0.04254618 -0.067225374 0.076411776 -0.07134132 -0.05095588 -0.06659598 -0.020874614 0.018981887
-0.059668034 -0.049613304 -0.051971838 0.013541091 -0.023486331 -0.0376294 -0.05551228 0.040600795
-0.0006144297 -0.025631338 -0.013385645 0.019132646 0.024284238 0.057530686 0.05957812 -0.01761772
0.0338858 0.012304055 -0.01164719 0.059743397 0.03314765 0.07776575 -0.03768828 0.009638416
0.050168913 -0.059134208 0.043703634 -0.021184469 -0.023020096 -0.04420797 0.0037670461 -0.0927185
-0.04007855 0.085710004 -0.07269871 0.024109287 -0.066046886 0.02740043 0.08485582 -0.054237545
-0.078503914 0.007609453 0.07163293 0.061549604 0.004225179 -0.011871518 -0.084499486 -0.07510981
0.045654118 0.07629911 -0.060848445 0.055329934 0.030244779 -0.071377136 0.050695322 0.036361825
0.047580566 0.007407904 -0.00861612 0.08082709 -0.0025159733 -0.079485856 -0.061925404 0.017043691
-0.036058802 -0.072836906 -0.043476157 -0.063531265 -0.069396436 0.028394224 -0.041402355 -0.019781632
-0.042793505 0.08343957 0.06706325 -0.073683016 -0.06784164 -0.056744277 -0.048602585 -0.010893472
0.034436163 -0.05127937 -0.086358406 0.0018256633 0.011700212 -0.059415724 -0.037452653 -0.096917585
-0.04961623 -0.029997727 0.037077747 0.028286275 -0.0043217638 -0.058481365 0.010924029 0.0625354
0.0056608035 0.08210956 0.08725566 -0.07118175 0.059215568 -0.07758898 0.08849536 0.0033649046
-0.06231752 0.060817454 0.06575198 -0.064628005 -0.012731486 0.035820268 -0.032355383 0.03233449
0.045101356 0.060073517 0.073941134 -0.07985233 -0.051410295 0.00727382 0.0041632694 -0.053132787
0.050103806 0.044750042 -0.060274754 0.015263717 -0.0827074 0.075903445 0.0328182 0.08091583
-0.031444132 -0.05358766 0.030837387 0.05758696 -0.06530537 -0.044431757 -0.04564098 -0.07747021
-0.04319841 -0.026038583 -0.05111554 -0.029415103 -0.061250314 0.02772023 -0.069067776 0.036694825
-0.02512877 0.007088598 0.057407703 -0.020949284 -0.077210516 -0.03504411 0.040963188 0.04472879
0.0471935 -0.01663337 -0.020451713 0.052127346 0.06919201 0.0083228275 0.024703432 -0.0845285
-0.0010904516 -0.004798399 -0.007189351 0.06841968 0.0018747384 -0.04376746 -0.029059514 0.07138829
0.0026320815 -0.079995476 0.05213827 -0.06216852 0.022216054 -0.0031801749 -0.07955592 -0.023059834
0.04948082 -0.034446858 -0.07622638 -0.07150967 0.05526626 0.038546994 -0.04277926 0.041773047
-0.04222108 -0.01385683 -0.013086861 0.028497564 -0.066728175 0.0010595671 -0.03061956 -0.042188767
-0.053423055 -0.018862536 0.031556815 -0.036909796 -0.023168316 0.043385595 0.011940426 0.012629047
-0.034476172 0.010444219 -0.083835274 0.06283994 -0.03828778 0.005113196 -0.08815832 -0.08958899
-0.031236092 -0.06124531 0.017957218 -0.085931405 -0.005533826 -0.08549565 0.043763857 -0.055694018
-0.060726892 -0.06898442 0.04318971 -0.041575525 0.0297404 0.0537682 -0.019320503 -0.07352213
0.023568368 0.08668766 0.04343283 0.047183774 0.042230677 -0.012887292 0.024549047 -0.027097808
00000000: 4a3d 663d 26e4 b3bc 6ddb 3e3b b9c5 a3bd
00000010: 2031 303b cd3d a03d 345f a13d 826b cbbc
00000020: db43 9d3d 9dc5 a03d 3691 61bd 6b93 29bd
00000030: 4e57 8abd c785 d03c 2383 a9bc f56f d93c
00000040: e744 2e3d 75ad 89bd c77d 9c3d 661b 92bd
00000050: 1db7 50bd 7963 88bd 3d01 abbc e77f 9b3c
00000060: 7866 74bd 5237 4bbd 6ce0 54bd 74db 5d3c
00000070: 6866 c0bc 4921 1abd d860 63bd 054d 263d
00000080: ae11 21ba d0f8 d1bc 774f 5bbc 11bc 9c3c
00000090: bdef c63c 4ca5 6b3d 3008 743d 0953 90bc
000000a0: d6cb 0a3d f296 493c dbd3 3ebc 7eb5 743d
000000b0: d5c5 073d a643 9f3d 075f 1abd 72ea 1d3c
000000c0: eb7d 4d3d b636 72bd 9502 333d 0d8b adbc
000000d0: a494 bcbc 6b13 35bd 8ce0 763b 32e3 bdbd
000000e0: 6829 24bd ba88 af3d 10e3 94bd d780 c53c
000000f0: 9743 87bd de76 e03c e3c8 ad3d 3028 5ebd
00000100: a9c6 a0bd b858 f93b 49b4 923d 701b 7c3d
00000110: 5f73 8a3b c180 42bc 110e adbd 2cd3 99bd
00000120: d0ff 3a3d b542 9c3d 383c 79bd a4a1 623d
00000130: e6c3 f73c 2d2e 92bd e6a5 4f3d 23f0 143d
00000140: d7e3 423d 01be f23b a02a 0dbc ac88 a53d
00000150: 07e3 24bb 7bc9 a2bd 7ea5 7dbd 369f 8b3c
00000160: 65b2 13bd 842b 95bd 0e14 32bd ae1c 82bd
00000170: b81f 8ebd 019b e83c 8495 29bd 170d a2bc
00000180: 3e48 2fbd 5ee2 aa3d 7558 893d 1fe7 96bd
00000190: 8ff0 8abd b06c 68bd 8113 47bd 887a 32bc
000001a0: ef0c 0d3d 510a 52bd addc b0bd 184b ef3a
000001b0: 3fb2 3f3c e75d 73bd f467 19bd ba7c c6bd
000001c0: 633a 4bbd cbbd f5bc d6de 173d 9eb8 e73c
000001d0: 959d 8dbb 288a 6fbd b3fa 323c 8f12 803d
000001e0: 437e b93b 0f29 a83d 18b3 b23d bdc7 91bd
000001f0: 068c 723d f9e6 9ebd 0e3d b53d bb85 5c3b
00000200: a840 7fbd b91b 793d f9a8 863d b05b 84bd
00000210: b997 50bc 46b8 123d 1487 04bd 2c71 043d
00000220: 33bc 383d a60f 763d 736e 973d 9e89 a3bd
00000230: 9a93 52bd 3a59 ee3b 096c 883b c4a1 59bd
00000240: a639 4d3d d24b 373d a9e2 76bd ab14 7a3c
00000250: 7f62 a9bd 4473 9b3d 606c 063d 33b7 a53d
00000260: 90cb 00bd bc7e 5bbd b09e fc3c 4ee0 6b3d
00000270: d2be 85bd 13fe 35bd 09f2 3abd b4a8 9ebd
00000280: d1f0 30bd de4e d5bc 875e 51bd f1f7 f0bc
00000290: 9ce1 7abd 8915 e33c 6873 8dbd 504d 163d
000002a0: dada cdbc 7847 e83b 5724 6b3d d59d abbc
000002b0: 8c20 9ebd 6a8a 0fbd 04c9 273d 8935 373d
000002c0: f94d 413d b542 88bc 5a8a a7bc 7c83 553d
000002d0: 8ab4 8d3d 785c 083c da5e ca3c 471d adbd
000002e0: 7ced 8eba e33b 9dbb a694 ebbb 9e1f 8c3d
000002f0: c8b9 f53a 8245 33bd 380e eebc 0634 923d
00000300: 007f 2c3b abd4 a3bd f08e 553d 6ba4 7ebd
00000310: 71fe b53c 7b6a 50bb 37ee a2bd fae7 bcbc
00000320: 66ac 4a3d 2618 0dbd 941c 9cbd a973 92bd
00000330: e05e 623d 74e3 1d3d 4e39 2fbd 371a 2b3d
00000340: 03f0 2cbd c207 63bc 466a 56bc b973 e93c
00000350: c8a8 88bd 2ce1 8a3a dfd5 fabc 21ce 2cbd
00000360: 22d2 5abd 9b85 9abc b841 013d ba2e 17bd
00000370: 7bcb bdbc 18b5 313d c7a1 433c 10ea 4e3c
00000380: e336 0dbd 3b1e 2b3c d4b1 abbd 3ab2 803d
00000390: a6d3 1cbd 998c a73b 598c b4bd 6f7a b7bd
000003a0: d5e2 ffbc 5ddc 7abd 041b 933c cefc afbd
000003b0: 1955 b5bb 5818 afbd bb41 333d 691f 64bd
000003c0: c3bc 78bd b447 8dbd b1e7 303d 194b 2abd
000003d0: 24a2 f33c 0b3c 5c3d 0846 9ebc c592 96bd
000003e0: 7312 c13c 4d89 b13d a0e6 313d c643 413d
000003f0: 13fa 2c3d 3825 53bc 151b c93c 39fc ddbc

discriminator.7.weight f4 [16]
1.0002704 1.0019178 0.9982418 1.0009317 0.99840707 0.9914362 0.9950923 0.99671173
1.0094892 1.0079815 0.9941277 0.9978448 1.0097219 0.9910111 0.99418247 1.0025399
00000000: dc08 803f d83e 803f c68c 7f3f 881e 803f
00000010: 9b97 7f3f c3ce 7d3f 5ebe 7e3f 8028 7f3f
00000020: f136 813f 8a05 813f 277f 7e3f c272 7f3f
00000030: 913e 813f e7b2 7d3f be82 7e3f 3a53 803f

discriminator.7.bias f4 [16]
0.008025065 0.00617034 0.006968137 0.010746214 0.0051609655 0.00039340116 -0.00078007695 -0.0025508124
0.01079966 0.010218037 -0.006654794 0.007924871 0.010768392 -0.0074115577 -0.0055160024 0.0045843357
00000000: 907b 033c 9030 ca3b f854 e43b e310 303c
00000010: 511d a93b 6941 ce39 147e 4cba 882b 27bb
00000020: 0ff1 303c 8e69 273c 7510 dabb 51d7 013c
00000030: e96d 303c a7dc f2bb 95bf b4bb 3238 963b

discriminator.7.running_mean f4 [16]
-0.1985818 -0.24602103 -0.31154367 0.02451651 0.24880499 -0.024594322 0.049464546 -0.17974433
0.09342821 0.23917691 -0.22327106 -0.1415812 -0.009357621 0.0790855 -0.11703214 -0.05751406
00000000: 0759 4bbe f0ec 7bbe a782 9fbe d9d6 c83c
00000010: bcc6 7e3e 087a c9bc 569b 4a3d e60e 38be
00000020: 4a57 bf3d cbea 743e 2ba1 64be a9fa 10be
00000030: b550 19bc 94f7 a13d 8cae efbd dd93 6bbd

discriminator.7.running_var f4 [16]
0.20704307 0.06911586 0.12214009 0.09106474 0.22180557 0.13366401 0.11274548 0.10157449
0.16655327 0.089788474 0.14723763 0.13354209 0.15066855 0.21416245 0.14722408 0.14156553
00000000: 1903 543e 9e8c 8d3d 9524 fa3d 2780 ba3d
00000010: 0021 633e 38df 083e 1ae7 e63d 4906 d03d
00000020: f18c 2a3e 05e3 b73d 76c5 163e 42bf 083e
00000030: db48 1a3e 674d 5b3e e9c1 163e 8ef6 103e

discriminator.9.weight f4 [32, 16, 4, 4]
0.024357053 0.012259915 0.030764937 0.013410147 0.0015402262 -0.0071351477 -0.053086504 -0.044992846
0.04550626 -0.01593738 0.035626024 -0.019367669 0.007779825 0.0074688145 -0.02006916 -0.0038818384
0.0061076833 0.025376642 0.005859742 -0.015931165 -0.047059417 0.010299712 0.022629473 0.0011590562
0.052079145 -0.030765563 -0.031633575 0.025768243 -0.019558175 0.04361759 0.056135487 0.014322461
0.062386997 -0.009407085 0.034020238 -0.0497712 -0.00029319467 -0.012807498 0.048199624 -0.015985698
0.04458784 0.020035349 0.029569058 0.019441376 -0.04716427 0.025593102 -0.0080862045 -0.0031640863
-0.012657616 -0.034362704 0.02883476 -0.041848954 -0.037648834 -0.025347244 0.0383118 -0.0461644
-0.029872606 0.009490562 0.004578523 0.012007704 0.0030756274 0.01670488 -0.024159292 0.0359789
-0.030811172 -0.03904816 -0.00015731002 0.04471725 -0.03560427 0.025126573 0.052001685 -0.028481519
-0.04286343 0.005199754 0.0137670105 -0.05728801 3.976181e-05 -0.015787493 -0.0021383185 0.034762066
0.06084193 -0.0006723592 -0.02912733 0.053381372 0.031974457 0.02472344 0.05146028 0.041974735
-0.027980084 -0.037151955 -0.014248483 0.02187053 -0.0114744315 -0.061204325 -0.03229807 -0.018283328
-0.029827254 -0.03836679 -0.012612964 0.029863331 0.03176355 0.04744299 -0.038171835 -0.014793583
0.03069537 -0.05047859 -0.053085826 0.018730648 -0.027047541 -0.07099348 -0.056282446 0.016817734
0.01595582 -0.015834821 -0.03107087 0.029767962 0.009095933 0.017189598 0.02969496 -0.03620437
-0.008409368 0.022492528 -0.024815613 0.055721514 0.05879531 -0.009435182 0.03951416 -0.018489558
0.03787938 -0.046177648 -0.0011865634 -0.046352666 0.024101403 -0.035963323 0.0018102896 0.010490344
-0.0032807558 0.056761425 -0.025761634 -0.035445806 0.00286522 0.008558371 -0.048901055 -0.03438196
0.051145602 -0.026413625 0.037945338 -0.007480375 0.06269493 -0.035856556 0.05384958 -0.029656941
0.03205514 0.002059604 -0.05255781 0.041981075 0.059579846 0.023933975 -0.023861745 -0.009196499
0.013095715 -0.049196243 -0.037360933 -0.052332208 -0.028276205 -0.048983965 -0.019585185 -0.024379004
-0.027276471 -0.05379232 -0.015027744 -0.042108532 0.05230503 0.033909705 -0.023815457 -0.054436162
0.049266472 0.02276917 0.037027378 -0.001827201 0.0037332075 -0.033640932 -0.0460634 -0.010222631
-0.04283309 -0.023820398 0.037473496 -0.009854009 -0.0057392283 -0.0150918765 -0.001886734 0.01839613
0.014853788 0.048377633 -0.02167834 0.05469097 -0.048565775 -0.024425345 -0.06672957 0.02087
-0.03659037 0.039953575 -0.018364245 -0.012476682 0.011610606 -0.0325036 0.009138899 -0.034925934
-0.006925349 -0.03149891 0.013736693 -0.019019108 0.057690553 -0.033943772 0.04227901 0.05499724
-0.041099094 -0.00740628 0.03152429 -0.031665724 0.041847885 -0.054769788 0.03593011 -0.010104871
-0.003634228 -0.040476847 -0.050035164 0.021136284 0.062731214 0.06037007 -0.04343297 0.07032093
-0.03601794 0.04949822 0.0045322534 -0.031391084 0.02508847 0.0046055806 -0.049478997 -0.019274473
-0.030971326 0.05206029 0.02636321 0.022434179 0.03276189 0.020079898 -0.042131826 0.017882451
-0.03105828 -0.04317224 0.055529974 0.035061028 0.027943473 0.0023330268 -0.013176039 -0.046796992
00000000: 7188 c73c cfdd 483c c006 fc3c 3cb6 5b3c
00000010: 6ae1 c93a f5cd e9bb 3c71 59bd 6b4a 38bd
00000020: c664 3a3d 1c8f 82bc 98ec 113d f2a8 9ebc
00000030: e7ed fe3b f5bc f43b 1468 a4bc 7166 7ebb
00000040: f622 c83b ade2 cf3c 1403 c03b 1382 82bc
00000050: 60c1 40bd 20c0 283c 7261 b93c 79eb 973a
00000060: f150 553d 1008 fcbc 3592 01bd ec17 d33c
00000070: 7738 a0bc 5ca8 323d 53ee 653d c1a8 6a3c
00000080: 8289 7f3d 2d20 1abc ce58 0b3d e3dc 4bbd
00000090: ecb7 99b9 8ad6 51bc f86c 453d 70f4 82bc
000000a0: bda1 363d 2c21 a43c cf3a f23c 8543 9f3c
000000b0: 522f 41bd a0a8 d13c 007c 04bc 8f5c 4fbb
000000c0: e461 4fbc e8bf 0cbd e036 ec3c cf69 2bbd
000000d0: aa35 1abd 06a5 cfbc d6ec 1c3d e216 3dbd
000000e0: 65b7 f4bc 4d7e 1b3c 6f07 963b f6bb 443c
000000f0: 7790 493b acd8 883c b5e9 c5bc 9c5e 133d
00000100: b667 fcbc f7f0 1fbd 96f3 24b9 6f29 373d
00000110: c8d5 11bd 3ed6 cd3c b8ff 543d 1352 e9bc
00000120: 9091 2fbd b362 aa3b 078f 613c d5a6 6abd
00000130: ebc5 2638 c654 81bc 0823 0cbb ab62 0e3d
00000140: 6335 793d 4341 30ba 709c eebc 6da6 5a3d
00000150: a6f7 023d d088 ca3c 04c8 523d b3ed 2b3d
00000160: 7d36 e5bc a62c 18bd 7872 69bc d329 b33c
00000170: 41ff 3bbc 63b1 7abd fb4a 04bd ebc6 95bc
00000180: 4958 f4bc 7f26 1dbd 9ba6 4ebc f2a3 f43c
00000190: 7f1a 023d 9553 423d 125a 1cbd c960 72bc
000001a0: db74 fb3c a3c2 4ebd 8670 59bd 0471 993c
000001b0: ce92 ddbc 0865 91bd 6c88 66bd 58c5 893c
000001c0: c8b5 823c 07b8 81bc 5688 febc f1db f33c
000001d0: 1c07 153c 33d1 8c3c d842 f33c 094b 14bd
000001e0: 72c7 09bc 4042 b83c 1d4a cbbc 3e3c 643d
000001f0: 5ad3 703d 0696 1abc 9ad9 213d 6a77 97bc
00000200: 6927 1b3d c624 3dbd 7686 9bba 4bdc 3dbd
00000210: 4e70 c53c 474e 13bd 3d47 ed3a b1df 2b3c
00000220: f301 57bb ab7e 683d 100a d3bc 9f2f 11bd
00000230: 6ac6 3b3b 6938 0c3c 794c 48bd 19d4 0cbd
00000240: 0d7e 513d 6361 d8bc 926c 1b3d ef1d f5bb
00000250: 3366 803d 53de 12bd 6191 5c3d 1df3 f2bc
00000260: 404c 033d 6cfa 063b dc46 57bd 59f4 2b3d
00000270: ff09 743d 2f11 c43c b579 c3bc eaac 16bc
00000280: 698f 563c 0082 49bd c707 19bd 4c5a 56bd
00000290: 80a3 e7bc 69a3 48bd 1c71 a0bc 7ab6 c7bc
000002a0: e872 dfbc 5655 5cbd ed36 76bc ff79 2cbd
000002b0: cd3d 563d e7e4 0a3d a218 c3bc 74f8 5ebd
000002c0: a4cb 493d 6986 ba3c 05aa 173d b17e efba
000002d0: d4a8 743b 13cb 09bd faac 3cbd d27c 27bc
000002e0: c071 2fbd ff22 c3bc cf7d 193d b672 21bc
000002f0: 2310 bcbb eb43 77bc 4a4c f7ba 7bb3 963c
00000300: 4d5d 733c a027 463d c696 b1bc a303 603d
00000310: e8ec 46bd a917 c8bc 83a9 88bd 90f7 aa3c
00000320: c9df 15bd 5ca6 233d 9d70 96bc ff6a 4cbc
00000330: 693a 3e3c 7f22 05bd 52bb 153c 7f0e 0fbd
00000340: 0aee e2bb 0005 01bd de0f 613c f6cd 9bbc
00000350: ee4c 6c3d a008 0bbd c12c 2d3d c944 613d
00000360: 8657 28bd 61b0 f2bb 9d1f 013d ebb3 01bd
00000370: b068 2b3d 4956 60bd 732b 133d e78e 25bc
00000380: 3a2c 6ebb 0dcb 25bd acf1 4cbd 0026 ad3c
00000390: 3979 803d 9b46 773d c5e6 31bd 6b04 903d
000003a0: 8c87 13bd a5be 4a3d 4c83 943b f093 00bd
000003b0: 5686 cd3c 69ea 963b 7daa 4abd 80e5 9dbc
000003c0: 94b7 fdbc 2c3d 553d a9f7 d73c e2c7 b73c
000003d0: 5531 063d 997e a43c 6c92 2cbd 387e 923c
000003e0: ef6d febc 60d5 30bd 6673 633d 279c 0f3d
000003f0: b6e9 e43c b2e5 183b 50e0 57bc 34ae 3fbd

discriminator.10.weight f4 [32]
0.99235636 0.99377584 0.988828 1.0074791 1.0084002 1.0049459 1.012203 0.99162996
1.0122874 1.0102906 0.9972421 1.0023443 0.9920315 1.0111417 1.0017177 1.0067966
1.0048864 0.99081695 0.99465793 1.0105281 0.9916753 1.0027883 0.9998897 0.9927089
0.9940807 0.99211115 0.98962086 0.9909021 0.998777 0.99785465 1.0021766 0.98889077
00000000: 110b 7e3f 1868 7e3f d523 7d3f 13f5 803f
00000010: 4213 813f 11a2 803f de8f 813f 76db 7d3f
00000020: a292 813f 3451 813f 424b 7f3f d14c 803f
00000030: c7f5 7d3f 176d 813f 4938 803f b6de 803f
00000040: 1ea0 803f 2ea6 7d3f e7a1 7e3f fc58 813f
00000050: 6fde 7d3f 5e5b 803f c5f8 7f3f 2c22 7e3f
00000060: 137c 7e3f fffa 7d3f cb57 7d3f c3ab 7d3f
00000070: d9af 7f3f 6773 7f3f 5347 803f f227 7d3f

discriminator.10.bias f4 [32]
-0.0011187369 0.008031231 -0.0077452883 0.009636787 0.011473342 0.009055504 0.012254309 -0.008864446
0.012114936 0.009991431 0.0062626353 -0.0032906185 -0.007697811 0.009717008 0.0110946335 0.008122125
0.006212962 -0.009482373 -0.0039770836 0.010498805 -0.008158329 0.007470409 0.0040758094 -0.0066778734
-0.003194984 -0.007859542 -0.0093915975 -0.007598219 0.0048877676 -0.0015788123 0.0043558762 -0.00953407
00000000: 95a2 92ba 6d95 033c 30cc fdbb 9de3 1d3c
00000010: affa 3b3c 895d 143c 4cc6 483c 2e3c 11bc
00000020: b97d 463c 19b3 233c cb36 cd3b 6ba7 57bb
00000030: eb3d fcbb 1634 1f3c 44c6 353c a912 053c
00000040: 1a96 cb3b f45b 1bbc 3252 82bb 2e03 2c3c
00000050: 83aa 05bc 55ca f43b 5e8e 853b 10d2 dabb
00000060: f062 51bb 4fc5 00bc 37df 19bc 7bfa f8bb
00000070: 9129 a03b 26f0 ceba bdbb 8e3b ca34 1cbc

discriminator.10.running_mean f4 [32]
-0.03642933 -0.084716335 -0.08393428 -0.076554805 -0.011212369 0.11394493 0.45780298 -0.06007109
-0.001634027 0.014213643 0.044983435 0.074664265 -0.112060316 -0.13773565 -0.13435122 0.2967777
-0.03802373 -0.016236309 -0.108528934 -0.3773051 -0.055462237 0.21219374 -0.15633143 -0.123807564
-0.0020379822 0.019742016 0.012647776 0.024047462 0.09667502 -0.3087582 -0.0907171 -0.06539336
00000000: ec36 15bd c27f adbd bce5 abbd c4c8 9cbd
00000010: 16b4 37bc f65b e93d 2765 ea3e 1a0d 76bd
00000020: d92c d6ba 57e0 683c 8d40 383d 94e9 983d
00000030: e17f e5bd 930a 0dbe 5e93 09be 3ff3 973e
00000040: c5be 1bbd 0202 85bc 6b44 debd 222e c1be
00000050: 5f2c 63bd 5149 593e 5915 20be d28e fdbd
00000060: ab8f 05bb 02ba a13c 9e38 4f3c 2fff c43c
00000070: 8efd c53d 8e15 9ebe e3c9 b9bd f4ec 85bd

discriminator.10.running_var f4 [32]
0.15107985 0.111586265 0.19218606 0.119501315 0.15402266 0.12673208 0.23594275 0.0899699
0.1325663 0.12420701 0.12072195 0.19186462 0.087495536 0.12722704 0.15472667 0.108215325
0.13362943 0.14047833 0.17182767 0.21903647 0.08534854 0.16241 0.18356343 0.17808619
0.13806216 0.113537095 0.14318638 0.25137973 0.1687273 0.22493114 0.14697045 0.29485276
00000000: adb4 1a3e 5787 e43d 6ccc 443e 1bbd f43d
00000010: 1eb8 1d3e 0ec6 013e fa9a 713e 2442 b83d
00000020: 76bf 073e 3f60 fe3d 123d f73d 2978 443e
00000030: dc30 b33d ce47 023e ab70 1e3e ff9f dd3d
00000040: 27d6 083e 8dd9 0f3e 98f3 2f3e 194b 603e
00000050: 37cb ae3d cf4e 263e 0df8 3b3e 3a5c 363e
00000060: 2b60 0d3e 2386 e83d 739f 123e d8b4 803e
00000070: d9c6 2c3e 5954 663e 6c7f 163e f1f6 963e

discriminator.12.weight f4 [1, 32, 4, 4]
-0.030190732 -0.01631102 0.020668942 -0.016577626 0.019373292 -0.022649478 -0.004236225 0.009337462
0.020414071 0.0006693762 0.03385882 0.017121218 -0.017930878 -0.032130755 -0.01271874 -0.044639356
-0.021362487 0.018856462 -0.014711721 -0.013554204 -0.015204291 -0.01675813 -0.008552721 -0.0528687
-0.030547248 0.01854901 0.016922088 -0.044975318 0.0070230523 -0.008853002 0.021341283 -0.019760648
0.023500402 -0.0044446248 0.016237857 -0.010020092 -0.006860775 -0.011102356 -0.007601577 0.021417962
-0.035361316 -0.044440076 -0.034987144 -0.007482547 0.027090156 0.031141479 -0.006893956 0.014981292
0.036568176 -0.03124633 0.0056811287 0.0089112595 -0.03665388 -0.04019827 0.015543755 -0.03329219
-0.011900239 -0.023527043 -0.00030709183 -0.032140896 -0.007197045 -0.03816549 0.01520336 -0.032467473
-0.027909147 0.00034580156 0.030890703 0.010138699 -0.02270219 -0.0045828386 -0.035625834 -0.024948329
-0.012829489 -0.03548316 -0.0073720883 0.026743768 0.00056307734 -0.02694316 -0.052010372 0.029840838
-0.002157462 0.0025453502 0.03441742 0.0034036024 0.0239607 -0.03505659 -0.025134604 -0.048701067
-0.009838076 0.040578507 -0.0060101543 -0.016191721 -0.003175035 -0.021671118 -0.037084226 0.012781814
0.010941589 -0.013317266 -0.0044122487 0.010040933 -0.041227385 -0.046256687 -0.020744186 0.029053105
-0.03856666 -0.05129895 -0.031710945 0.0033465538 0.0106354365 0.022451293 -0.03156497 0.02763179
0.021395128 0.0044602538 0.031980626 -0.0013776904 0.025885353 -0.0151731 0.042984765 -0.009268884
0.017076375 -0.0065819966 0.030725466 0.00042395646 -0.032298394 0.037381202 -0.025882911 0.04077906
-0.051638175 -0.032742746 -0.050083905 -0.019481122 -0.016889982 -0.014944731 -0.02780005 0.023041923
0.011825132 -0.010173541 -0.008011278 -0.031914305 0.010092741 -0.012326869 0.037904862 0.039731458
-0.026126355 -0.049251534 -0.012283774 -0.026528927 0.007192898 0.019289652 0.010542953 0.011528001
0.0043143 0.0063189715 -0.028838677 -0.008196384 -0.028123068 0.00071295985 0.017755494 -0.024493992
-0.052730534 -0.038411587 -0.0035505788 -0.024269585 0.027573619 -0.024967734 -0.03175939 -0.01733164
0.011337359 0.0016143945 -0.0193175 0.0052968543 -0.03782795 0.03352446 -0.004397425 0.013613101
-0.036057625 0.025819976 -0.0030127058 0.039399672 0.018255258 0.00933725 0.0042862766 0.0066961795
-0.03541341 -0.008644259 0.0007163382 0.027652811 0.0012111434 -0.028134696 0.0014271039 -0.0050834003
0.00037801225 0.0044682557 0.034317028 -0.042665727 -0.01559843 0.01675709 0.01062535 -0.03723625
0.014393208 -0.027951578 -0.023568198 0.029774986 0.024882076 0.034555096 0.009100698 -0.0027097673
0.040424526 0.008123775 0.019053942 -0.006967069 -0.035503864 -0.0047829007 0.004677678 -0.038280625
0.0076468536 -0.04174298 -0.045444563 -0.036792796 -0.00759749 -0.040443037 0.03314929 -0.0459626
-0.018070806 0.0012620159 0.020718578 -0.010751501 0.03181336 -0.0023447978 -0.0196481 -0.0315411
-0.004107641 -0.016619701 0.035687312 -0.049184192 -0.015149619 0.024585465 -0.04210785 -0.030101331
0.019126335 -0.015373102 -0.030602932 -0.007953879 0.009332504 -0.040235747 0.0025162166 0.0016095575
0.04308811 -0.020866975 0.010698034 -0.022960374 0.034435418 -0.0032507912 0.033136494 -0.024815766
00000000: 8e52 f7bc b09e 85bc ea51 a93c cdcd 87bc
00000010: bdb4 9e3c 668b b9bc 08d0 8abb 27fc 183c
00000020: 693b a73c 1479 2f3a 8caf 0a3d cc41 8c3c
00000030: c7e3 92bc 8a9b 03bd 4362 50bc c2d7 36bd
00000040: 6200 afbc de78 9a3c 6e09 71bc 7412 5ebc
00000050: 6b1b 79bc 5948 89bc b620 0cbc da8c 58bd
00000060: 393e fabc 18f4 973c 31a0 8a3c 0a38 38bd
00000070: a221 e63b 2f0c 11bc ead3 ae3c 15e1 a1bc
00000080: ea83 c03c 37a4 91bb 4105 853c 502b 24bc
00000090: 5ad0 e0bb a8e6 35bc a616 f9bb b974 af3c
000000a0: 07d7 10bd cc06 36bd ae4e 0fbd 2730 f5bb
000000b0: 2dec dd3c 6a1c ff3c b2e6 e1bb 1874 753c
000000c0: 83c8 153d 4ef8 ffbc c328 ba3b 8800 123c
000000d0: 6122 16bd f1a6 24bd 3cab 7e3c 645d 08bd
000000e0: 38f9 42bc c9bb c0bc 2b01 a1b9 2ca6 03bd
000000f0: 30d5 ebbb 6b53 1cbd 8317 793c 9dfc 04bd
00000100: b9a1 e4bc b34c b539 800e fd3c c91c 263c
00000110: f1f9 b9bc a32b 96bb 65ec 11bd 7060 ccbc
00000120: c732 52bc ca56 11bd 8f91 f1bb bf15 db3c
00000130: 7b9b 133a e7b7 dcbc d408 55bd c674 f43c
00000140: 3564 0dbb e4cf 263b 48f9 0c3d f90e 5f3b
00000150: 3b49 c43c 8097 0fbd 16e7 cdbc c57a 47bd
00000160: e22f 21bc a635 263d d4f0 c4bb 80a4 84bc
00000170: 3f14 50bb a187 b1bc a1e5 17bd d06a 513c
00000180: 5a44 333c a930 5abc a094 90bb ba82 243c
00000190: 0cde 28bd a777 3dbd b6ef a9bc c700 ee3c
000001a0: 13f8 1dbd d91e 52bd 56e3 01bd db51 5b3b
000001b0: 4140 2e3c c6eb b73c 454a 01bd 105c e23c
000001c0: d644 af3c 5227 923b 1efe 023d 9e93 b4ba
000001d0: 850d d43c 9898 78bc cb10 303d 84dc 17bc
000001e0: c1e3 8b3c caad d7bb f9b3 fb3c 7946 de39
000001f0: 524b 04bd 081d 193d 6608 d4bc f207 273d
00000200: 8d82 53bd 421d 06bd c824 4dbd e096 9fbc
00000210: dc5c 8abc bfda 74bc eebc e3bc 6ac2 bc3c
00000220: 33be 413c ecae 26bc bc41 03bc 93b8 02bd
00000230: 065c 253c a3f6 49bc 2142 1b3d 74bd 223d
00000240: f006 d6bc fabb 49bd e241 49bc 3153 d9bc
00000250: 67b2 eb3b 5505 9e3c 5abc 2c3c f1df 3c3c
00000260: f95e 8d3b 600f cf3b 173f ecbc 204a 06bc
00000270: 5962 e6bc ede5 3a3a f873 913c a0a7 c8bc
00000280: f9fb 57bd 7855 1dbd d4b0 68bb 02d1 c6bc
00000290: 12e2 e13c 2289 ccbc 2216 02bd 15fb 8dbc
000002a0: 55c0 393c 179a d33a bc3f 9ebc 3c91 ad3b
000002b0: 7bf1 1abd f250 093d 4618 90bb 7c09 5f3c
000002c0: 29b1 13bd 6a84 d33c d170 45bb 8d61 213d
000002d0: 0d8c 953c 44fb 183c e573 8c3b a06b db3b
000002e0: a70d 11bd a6a0 0dbc a5c8 3b3a 2688 e23c
000002f0: 3bbf 9e3a bc7a e6bc a90d bb3a a792 a6bb
00000300: f22f c639 726a 923b 0390 0c3d 42c2 2ebd
00000310: 8f90 7fbc 2a46 893c f315 2e3c 0a85 18bd
00000320: 7dd1 6b3c b5fa e4bc 1812 c1bc acea f33c
00000330: 7fd5 cb3c a589 0d3d 181b 153c 5a96 31bb
00000340: 3094 253d 9519 053c 0317 9c3c 034c e4bb
00000350: 806c 11bd e1b9 9cbb 3547 993b 25cc 1cbd
00000360: 7592 fa3b b0fa 2abd 1424 3abd 0bb4 16bd
00000370: 5ef4 f8bb 99a7 25bd 8dc7 073d 4743 3cbd
00000380: 3a09 94bc 3a6a a53a 02ba a93c 1027 30bc
00000390: ba4e 023d 2eab 19bb 0df5 a0bc 3e31 01bd
000003a0: 6499 86bb 0a26 88bc dc2c 123d 5d75 49bd
000003b0: 1c36 78bc 7567 c93c 4879 2cbd 1197 f6bc
000003c0: d5ae 9c3c 77df 7bbc 00b3 fabc fd50 02bc
000003d0: 5ce7 183c 3dce 24bd 1ce7 243b caf7 d23a
000003e0: 287d 303d 38f1 aabc cf46 2f3c 6517 bcbc
000003f0: 270c 0d3d 3a0b 55bb 22ba 073d 6f4a cbbc
