models/novelty_gan_MNIST_replay_True_best_generator.model (torch, 236890 bytes, 16 tensors)

generator.0.weight f4 [10, 64, 5, 5]
0	0x3c0d63d1	0.008629755
1	0xbb70f123	-0.0036764822
2	0xbc9a5473	-0.018839097
3	0xbc0b9aae	-0.008520765
4	0xbc9d79f2	-0.019223187
5	0xbcb41485	-0.02198244
6	0x3cf4f19b	0.029900363
7	0x3cbbc740	0.022922158
8	0x3b1b5e97	0.0023707503
9	0x3cd75cb9	0.02628933
10	0xbc243f6d	-0.0100248875
11	0xbc56b4af	-0.013104602
12	0x3c868a19	0.016423272
13	0xbb5d40be	-0.0033760513
14	0xbaee89b6	-0.0018199
15	0x3c631f1c	0.0138623975
16	0x3c5c6389	0.013451465
17	0xbc4c38a5	-0.012464677
18	0xbc7ce1c8	-0.01543469
19	0xbc970e9d	-0.018439585
20	0xbb70e740	-0.003675893
21	0xbba09598	-0.0049006455
22	0x3c1ae894	0.009454865
23	0x3ab97505	0.0014149254
24	0x3c8aa8be	0.016926166
25	0xbaad5333	-0.0013223648
26	0x3c514742	0.012773337
27	0x3c15df89	0.009147533
28	0x3c9bea3b	0.019032588
29	0xbc84c74e	-0.016208317
30	0x3c77d8ae	0.015127344
31	0x3c8fa0af	0.017532675
32	0xbc813953	-0.015774405
33	0x3c0b1189	0.008488067
34	0x3c40a4c6	0.011758035
35	0xbc06378b	-0.008191953
36	0xbbb55bf0	-0.0055346414
37	0x3c9d0844	0.01916898
38	0x3c81dc52	0.015852127
39	0x3af7a5bc	0.0018893997
40	0x3c2269d2	0.009912925
41	0x3c52d306	0.012867695
42	0x3c9910cb	0.018684765
43	0xbc9b611a	-0.0189672
44	0xbc3ea86c	-0.011636835
45	0x3caa6397	0.020799441
46	0x3ba95e97	0.0051687467
47	0xbc56335d	-0.013073769
48	0xbbae45ed	-0.0053183944
49	0x3d0a28dd	0.033730377
50	0xbc7b92d4	-0.015354831
51	0x3c9eb905	0.019375334
52	0x3bd9a95d	0.006642504
53	0xbc8c0b14	-0.017095126
54	0xbccd09a7	-0.025029017
55	0x3b9ae2d1	0.0047267457
56	0x3c42aefe	0.011882542
57	0x3cc5d11c	0.024147563
58	0x3bbad3ff	0.0057015414
59	0x3c0ecb98	0.008715533
60	0xbc8fdf58	-0.017562553
61	0x3c6927fd	0.014230725
62	0xbcf27dd4	-0.029601015
63	0x3c8c2695	0.017108241
64	0x3afe4ced	0.0019401588
65	0x3c629ad6	0.013830861
66	0x3c4bd961	0.012441964
67	0xbc56abf0	-0.0131025165
68	0xbba26bb5	-0.0049566873
69	0xbb7bf573	-0.003844586
70	0x3b76abbe	0.0037638987
71	0xbc1022b0	-0.008797333
72	0xbc383ce0	-0.0112449825
73	0xbc1ce70d	-0.009576571
74	0xbca2e92f	-0.019886581
75	0x3cdc178b	0.026866695
76	0x3c9b179e	0.01893216
77	0x3bafa850	0.0053606406
78	0xbb5418ae	-0.0032363343
79	0xbca00c5f	-0.019537149
80	0x3bdd2221	0.0067484532
81	0x3c8248be	0.015903827
82	0x3c351583	0.011052492
83	0xbc4b410a	-0.012405643
84	0xbb4f810f	-0.0031662618
85	0xba9b0342	-0.0011826532
86	0x3c653459	0.013989531
87	0x3cac51dd	0.02103513
88	0xbc89779d	-0.016780669
89	0xbca951db	-0.020668915
90	0x3bac6fa2	0.005262331
91	0x3c2a3951	0.010389642
92	0x3c051784	0.008123282
93	0x3c8b97b5	0.017040113
94	0x3c35a970	0.01108776
95	0xbc2ea4f4	-0.010659445
96	0xbd000d31	-0.03126258
97	0x3c3bffca	0.011474559
98	0x3cdc7b38	0.026914224
99	0xbcaec708	-0.02133514
100	0xbc3e9df1	-0.011634336
101	0x3cb24186	0.02175976
102	0x3cc10b77	0.023565037
103	0xba9f2e78	-0.0012144586
104	0xbc8aa9ff	-0.016926764
105	0xbb236658	-0.0024932828
106	0xbcc9b2c2	-0.024621371
107	0xbc28527a	-0.01027357
108	0xbb8265df	-0.003979429
109	0xbb326fea	-0.002722735
110	0x3c3cf104	0.011532072
111	0x3b12b06a	0.0022382983
112	0xbc8ce6ea	-0.017199952
113	0x3b4a4ddc	0.0030869162
114	0xbb6b6a74	-0.0035921605
115	0x3c2bb563	0.010480258
116	0x3a8cf59c	0.001075435
117	0xbc6d321c	-0.014477279
118	0x3c090012	0.008361833
119	0x3c4d5657	0.012532792
120	0xbb972963	-0.004613088
121	0xbccae58c	-0.02476766
122	0x39342fb2	0.00017183906
123	0xbb468f88	-0.0030297954
124	0x3c4fc9aa	0.012682358
125	0xbb0969be	-0.0020967568
126	0xbb049505	-0.0020230424
127	0x3c210c87	0.009829647
128	0x3a0e50b1	0.0005428894
129	0x3c6eb070	0.014568433
130	0xbc50c601	-0.01274252
131	0x3c833710	0.016017467
132	0x3c15cc7c	0.009142991
133	0xbb8127b4	-0.0039415006
134	0x3c66e321	0.014092238
135	0x3bc16497	0.005901884
136	0x3cee8e17	0.029120488
137	0xba00e8c8	-0.00049174996
138	0x3c19874e	0.009370638
139	0xbbae7c1a	-0.0053248527
140	0x3b6af749	0.003585296
141	0x3c02be23	0.007979902
142	0xbc95d96c	-0.018292151
143	0x3b692404	0.0035574446
144	0x3c8f2a94	0.017476358
145	0x3c014b9e	0.007891564
146	0x3a0597ab	0.00050961477
147	0xbb9c5eab	-0.0047720275
148	0x3cb20ea2	0.021735493
149	0x3a5006d2	0.00079355866
150	0xbc56899c	-0.013094332
151	0x3c112ce7	0.008860803
152	0xbce0e6b2	-0.027453754
153	0x3a43a568	0.0007463307
154	0xbb925ad8	-0.004466396
155	0xbc8563a2	-0.01628286
156	0xbce2abe6	-0.027669858
157	0x3c8672b0	0.01641211
158	0x3b912dce	0.004430509
159	0x3b856293	0.004070589
160	0xbc04193d	-0.008062658
161	0xbc9f162c	-0.019419752
162	0xbcaf7ecf	-0.021422772
163	0x3c1271b8	0.0089382455
164	0xbd08680f	-0.033302363
165	0xbb749fcd	-0.0037326694
166	0x3c86d5b5	0.016459325
167	0x3cc85fc9	0.024459736
168	0xbc580620	-0.013185054
169	0xbca6eae2	-0.020375673
170	0x3cc285c4	0.023745425
171	0x3bd5d4d1	0.006525614
172	0x3c8b1777	0.016978962
173	0xbbc29087	-0.005937639
174	0xbb2bb16d	-0.0026198283
175	0x3b112a7e	0.0022150571
176	0x3c080f81	0.008304478
177	0x3b8c0ef8	0.0042742454
178	0xbc9a758f	-0.018854884
179	0x3ca6f67b	0.020381203
180	0x3bd1cbf1	0.0064024855
181	0x3b1b0c57	0.0023658478
182	0xbca4dd46	-0.020125043
183	0xbc229a34	-0.00992446
184	0xbb8e0d6c	-0.004335096
185	0xbb6696b6	-0.0035185046
186	0x3bf735b5	0.007544244
187	0xbb4cdabd	-0.0031258308
188	0x3b20b022	0.0024519046
189	0xbc33d759	-0.010976636
190	0xbc02e20d	-0.007988465
191	0x3beb9825	0.007189768
192	0x3cb32d61	0.021872224
193	0xbcf613bf	-0.030038713
194	0x3c0ee2c6	0.008721059
195	0x3c5100e0	0.012756556
196	0xbc003cb2	-0.007826971
197	0x3c2caaef	0.010538801
198	0x3c44cbc5	0.012011473
199	0xbc86b8f3	-0.016445613
200	0x3c86966e	0.016429152
201	0xbc8d8d7b	-0.017279377
202	0x3a69ba97	0.00089160487
203	0x3b85b3d9	0.0040802774
204	0xbc056195	-0.008140941
205	0x3b841155	0.0040303865
206	0xbcd5ec80	-0.026113749
207	0xbae3f1e2	-0.0017390812
208	0x3c571843	0.013128343
209	0x3c85c0c6	0.016327273
210	0x3c0674db	0.008206571
211	0x39b6751a	0.00034800993
212	0xbbdf1682	-0.006808103
213	0x3c35f803	0.011106494
214	0x3c10d70b	0.008840333
215	0x3c2a87c3	0.010408345
216	0x3c0cbc81	0.008589865
217	0xbbdbfcd0	-0.006713487
218	0xba6eabcc	-0.0009104579
219	0x3c9c9493	0.019113814
220	0x3c879cea	0.016554315
221	0xbc91b472	-0.017786238
222	0xbc9e6e2f	-0.019339649
223	0x3ae8635a	0.0017729804
224	0xbaf84a44	-0.0018943031
225	0xbb7d08ef	-0.0038610061
226	0x3c977245	0.018487105
227	0xbcd0572c	-0.025432192
228	0xbb56eef5	-0.0032796238
229	0x3c46464c	0.012101721
230	0xbbf0f2ab	-0.007353147
231	0xbc0bb946	-0.008528059
232	0x3b9324ea	0.0044904845
233	0x3c7d558c	0.0154622905
234	0x3c218c7f	0.009860157
235	0x3b79642c	0.0038054092
236	0x3b49f10b	0.0030813839
237	0xbc9217a9	-0.017833548
238	0xbc21d36e	-0.009877069
239	0x3d1839fc	0.037164673
240	0xbc2a08c4	-0.010378066
241	0x3c5f8808	0.013643272
242	0xbc126985	-0.008936291
243	0x3c85e77a	0.016345728
244	0x3c028d9a	0.007968331
245	0x3c859d97	0.016310496
246	0xbca3053b	-0.019899955
247	0x3b96ddd1	0.0046040793
248	0xbc7de8a0	-0.015497357
249	0xb9f3566f	-0.0004641297
250	0xbb89201d	-0.0041847364
251	0x3b87d7fd	0.004145621
252	0xbcd8dfe0	-0.02647394
253	0xbba58948	-0.0050517656
254	0xbc9af740	-0.018916726
255	0xbccb27f7	-0.02479933

generator.1.weight f4 [64]
0	0x3f7e9973	0.99452895
1	0x3f7e98fc	0.99452186
2	0x3f806de9	1.0033542
3	0x3f7f6e99	0.99778134
4	0x3f7ef5f0	0.9959402
5	0x3f7fafe9	0.9987779
6	0x3f800787	1.0002297
7	0x3f813c72	1.0096571
8	0x3f7fe8ba	0.9996449
9	0x3f7eeefb	0.99583405
10	0x3f7e3507	0.99299663
11	0x3f80078b	1.0002302
12	0x3f7f8b68	0.9982209
13	0x3f7f4ed2	0.99729645
14	0x3f809153	1.004435
15	0x3f7f4f00	0.9972992
16	0x3f80d1be	1.0064008
17	0x3f7f5eea	0.997542
18	0x3f7e2eab	0.9928996
19	0x3f7ef29e	0.99588954
20	0x3f803609	1.001649
21	0x3f7fe5d0	0.9996004
22	0x3f80cc4d	1.0062348
23	0x3f803a37	1.0017766
24	0x3f8061b7	1.002982
25	0x3f8039e2	1.0017664
26	0x3f8043bb	1.002067
27	0x3f80f574	1.0074906
28	0x3f7d6291	0.98978525
29	0x3f8013ac	1.0006003
30	0x3f807eb5	1.0038668
31	0x3f7f4377	0.9971232
32	0x3f7e4842	0.99329007
33	0x3f7e15db	0.992521
34	0x3f7f877c	0.9981611
35	0x3f808803	1.0041507
36	0x3f80a224	1.0049481
37	0x3f805bb4	1.0027986
38	0x3f7f5d41	0.9975167
39	0x3f80b21a	1.0054352
40	0x3f801c05	1.0008551
41	0x3f80e6db	1.0070451
42	0x3f808342	1.0040057
43	0x3f80042c	1.0001273
44	0x3f7eaf2f	0.9948606
45	0x3f8108dc	1.0080829
46	0x3f8030b5	1.0014864
47	0x3f80434b	1.0020536
48	0x3f7f3139	0.9968448
49	0x3f811aad	1.0086266
50	0x3f7f4fce	0.9973115
51	0x3f7da4a3	0.9907934
52	0x3f800490	1.0001392
53	0x3f807ca6	1.003804
54	0x3f7d302d	0.98901635
55	0x3f7fb085	0.9987872
56	0x3f8072b3	1.0035003
57	0x3f7db4b1	0.9910384
58	0x3f805698	1.0026426
59	0x3f80beea	1.0058262
60	0x3f819cdf	1.0125998
61	0x3f7fed62	0.9997159
62	0x3f7f91f4	0.9983208
63	0x3f7d6369	0.9897981

generator.1.bias f4 [64]
0	0xb984e15a	-0.00025344902
1	0xba7c0724	-0.0009614101
2	0x3b102dec	0.0022000028
3	0x3b39c064	0.0028343434
4	0x3bbf221c	0.0058329236
5	0x3bf11d8e	0.0073582595
6	0x3bd7e0f2	0.006588095
7	0x3c2fe5df	0.010735958
8	0xbaa5a77f	-0.0012638419
9	0x3bf91a29	0.0076019955
10	0xba9918c9	-0.001168036
11	0x3bb5da0c	0.005549675
12	0x3b8a1557	0.0042139697
13	0x3babdec3	0.005245061
14	0x3c282363	0.010262343
15	0x3b97669a	0.0046203854
16	0x3c0b9c7d	0.008521196
17	0x3c011aa7	0.00787989
18	0x3bab5265	0.005228328
19	0x3c1ccaa7	0.0095698
20	0x3bd62e8b	0.00653631
21	0x3c470df2	0.012149321
22	0x3c0825da	0.008309806
23	0x3c17e4b4	0.009270836
24	0x3c31ca34	0.010851432
25	0x3be50f12	0.006990322
26	0x3bf885f0	0.007584326
27	0x3c459eac	0.012061756
28	0x3b198db3	0.0023430407
29	0x3c222060	0.009895414
30	0x3bb9e4b5	0.005673016
31	0x3bcff157	0.0063459086
32	0xbb36ed1a	-0.002791232
33	0xbb0cbd81	-0.0021475258
34	0x3c1ccf2d	0.009570879
35	0x3c0624a7	0.00818745
36	0x3c2f605d	0.010704127
37	0x3a4abe6c	0.00077340635
38	0x3b64a1aa	0.0034886398
39	0x3c31431f	0.010819226
40	0x3b18423d	0.002323284
41	0x3c23c0be	0.009994684
42	0x3b629517	0.0034573728
43	0x3c0e1837	0.008672765
44	0x3b30dcb4	0.0026987018
45	0x3c33b83d	0.010969219
46	0x3c2fd000	0.010730743
47	0x3c59153a	0.01324969
48	0xb9b8d33e	-0.00035252603
49	0x3c5f6ba2	0.0136365015
50	0x3be75b18	0.00706042
51	0xbb7080c1	-0.0036697837
52	0x3ab70dd5	0.0013965914
53	0x3c2fa3a4	0.010720167
54	0xbb84c6ad	-0.0040520043
55	0x3c524745	0.012834375
56	0x3c09425f	0.0083776405
57	0xbb88fd26	-0.0041805683
58	0x3be5957e	0.0070063462
59	0x3c3629a3	0.011118325
60	0x3c627895	0.013822694
61	0x3c2c2fec	0.010509472
62	0x3c16350a	0.009167919
63	0xbabd301f	-0.0014433897

generator.1.running_mean f4 [64]
0	0x38fa3c51	0.00011932164
1	0xb9437cb5	-0.00018643106
2	0x39da003c	0.00041580375
3	0xb70cd039	-8.393131e-06
4	0xb9314c11	-0.00016908372
5	0xba0dd850	-0.0005410956
6	0x383f88bc	4.5665292e-05
7	0xb917fc16	-0.00014494392
8	0xb9ad7c1d	-0.00033089603
9	0x38ea9cdb	0.00011187206
10	0x36209e73	2.3934087e-06
11	0xb88f7ab1	-6.8416244e-05
12	0xb82592a8	-3.947565e-05
13	0x38d25bac	0.000100306555
14	0xb8b4c3b2	-8.61952e-05
15	0x37ab1f0d	2.0399248e-05
16	0x35062957	4.997905e-07
17	0xb946f7ab	-0.00018975015
18	0xb8598533	-5.1860883e-05
19	0x38aaa7ca	8.137485e-05
20	0x384d92fa	4.901269e-05
21	0xb884101f	-6.297253e-05
22	0xb8c38cfb	-9.324584e-05
23	0xb95433a6	-0.00020237136
24	0xb97d07a5	-0.00024130808
25	0xb964059b	-0.00021745863
26	0xb9e9491c	-0.00044495694
27	0xb9a1f7be	-0.00030892895
28	0xb8a67051	-7.9364174e-05
29	0x39232f75	0.0001556257
30	0x38b98540	8.846307e-05
31	0xb9dbe5d1	-0.00041942162
32	0xb939bdf2	-0.00017713735
33	0xb813e9bc	-3.5265213e-05
34	0xb8e3ed1b	-0.00010868368
35	0x38cfe97f	9.914021e-05
36	0x3994450c	0.00028280204
37	0x391a2399	0.00014699846
38	0xb979c0d9	-0.00023818332
39	0xb886dec2	-6.43111e-05
40	0x378b30b0	1.6592763e-05
41	0x389eb4c1	7.567695e-05
42	0x383ab6a1	4.4515942e-05
43	0x369a2269	4.5935635e-06
44	0x38aa1239	8.109626e-05
45	0xb93a9d6b	-0.00017796985
46	0x38597f57	5.1855426e-05
47	0xb73e7c05	-1.1353758e-05
48	0xb989644b	-0.000262054
49	0xb8c16dce	-9.22341e-05
50	0xb8e07e59	-0.000107046864
51	0xb94622a3	-0.00018895655
52	0x3897e68b	7.243183e-05
53	0xb9799233	-0.00023800954
54	0x399a8084	0.0002946892
55	0x392bd891	0.00016388508
56	0x388f823d	6.84303e-05
57	0x39cc6cb8	0.00038990914
58	0x3834cd37	4.3106465e-05
59	0xb6a466f8	-4.899568e-06
60	0xb8b3ed08	-8.579536e-05
61	0x381d7329	3.7538968e-05
62	0xb93a2e6d	-0.00017755637
63	0x3908fca2	0.00013064084

generator.1.running_var f4 [64]
0	0x3b0ad60f	0.0021184718
1	0x3b03584c	0.0020041643
2	0x3b123ffe	0.0022315974
3	0x3b001248	0.0019542146
4	0x3b105379	0.002202241
5	0x3b002268	0.0019551758
6	0x3b0acf76	0.0021180785
7	0x3b0bdc04	0.0021340856
8	0x3b0d5bb2	0.0021569547
9	0x3b110b65	0.0022132036
10	0x3b08b071	0.002085712
11	0x3b065af5	0.0020500992
12	0x3aff2e50	0.0019468758
13	0x3b06cb1c	0.002056784
14	0x3b0e27ab	0.0021691124
15	0x3aff9888	0.0019500414
16	0x3b00bfd3	0.0019645586
17	0x3b0b64a7	0.002126971
18	0x3b04c658	0.0020259824
19	0x3b05e68b	0.0020431604
20	0x3b02ac5e	0.0019939165
21	0x3af62f4f	0.001878241
22	0x3aece8f4	0.0018074797
23	0x3af0af15	0.0018362725
24	0x3b104976	0.0022016442
25	0x3b03b1e5	0.0020095047
26	0x3af35b9b	0.0018566729
27	0x3b0cf049	0.0021505526
28	0x3b05ff95	0.0020446528
29	0x3aeefab4	0.0018232674
30	0x3b041ddb	0.0020159397
31	0x3b0752db	0.002064875
32	0x3b175d2d	0.0023096309
33	0x3b18800e	0.0023269686
34	0x3b06d518	0.002057379
35	0x3b097cbf	0.0020978895
36	0x3b062852	0.002047081
37	0x3b13c642	0.002254859
38	0x3af27884	0.0018499051
39	0x3b034fbf	0.0020036546
40	0x3b083ee2	0.0020789434
41	0x3b020b49	0.0019843152
42	0x3b0905e9	0.0020908064
43	0x3b118b7a	0.0022208379
44	0x3b00d10c	0.0019655852
45	0x3b08b809	0.0020861647
46	0x3b00f6fd	0.0019678466
47	0x3b0937d5	0.002093782
48	0x3b0a0648	0.0021060873
49	0x3af87ac3	0.0018957484
50	0x3afa601c	0.0019102129
51	0x3b08ecd2	0.002089311
52	0x3b073188	0.0020628888
53	0x3b0dcc27	0.0021636577
54	0x3b0590e4	0.002038055
55	0x3adef757	0.0017010969
56	0x3b081b5d	0.0020768263
57	0x3b061486	0.002045901
58	0x3b0d8a69	0.0021597391
59	0x3b06edf1	0.0020588601
60	0x3aecd9b0	0.0018070247
61	0x3b03d2eb	0.002011473
62	0x3b10f630	0.0022119395
63	0x3b01fd31	0.0019834752

generator.3.weight f4 [64, 32, 4, 4]
0	0xbcbc09d8	-0.022953913
1	0x3cd56438	0.026048765
2	0x3bc06ba1	0.0058722054
3	0xbd082609	-0.0332394
4	0xbb5a8de2	-0.003334873
5	0xbcf43f7b	-0.029815426
6	0xbc0242ed	-0.007950527
7	0x3d051a49	0.03249577
8	0xbd33b1ab	-0.04387061
9	0xbca66694	-0.020312585
10	0xbcaa7834	-0.02080927
11	0x3d0f4b65	0.03498401
12	0x3cddf2b2	0.027093265
13	0xbcfaabec	-0.030599557
14	0x3d3a605a	0.045502044
15	0xbd1d9aed	-0.038477827
16	0xbd10ef89	-0.03538469
17	0xbd2e221a	-0.04251299
18	0xbcfefc6d	-0.031126225
19	0xbd249735	-0.040183265
20	0x3d162194	0.036653116
21	0xbc38d6cb	-0.011281679
22	0x3c6e51c6	0.0145458635
23	0xbd258817	-0.04041299
24	0xba97ef95	-0.0011591787
25	0x3cef7058	0.029228374
26	0xbadb29cb	-0.0016720829
27	0xbd24ef25	-0.04026713
28	0xbd136c3b	-0.03599189
29	0xbca0c5ea	-0.019625623
30	0xbd026c4b	-0.031841557
31	0xbbfea63a	-0.0077712806
32	0xbd0ea818	-0.034828275
33	0xbc144e8b	-0.009051929
34	0x3c89febb	0.016845098
35	0x3d0116d6	0.03151592
36	0x3c89e309	0.016831892
37	0xbc3327ef	-0.010934814
38	0xbbcc0ce7	-0.006227124
39	0xbd0a329d	-0.033739675
40	0x3d047059	0.032333706
41	0x39342c90	0.00017182739
42	0x3cea7a5a	0.028622795
43	0xbbef1ba1	-0.007296995
44	0xbce45264	-0.027871318
45	0x3d338497	0.04382762
46	0xbd25546a	-0.040363707
47	0x3d0e6f15	0.034773905
48	0x3c0ae03c	0.008476313
49	0xbcbe88b5	-0.023258546
50	0xbccf1570	-0.025278777
51	0xbd28864f	-0.04114371
52	0x3c756f43	0.01498014
53	0xbc7e1e21	-0.015510113
54	0x3c86d4a1	0.016458811
55	0x3ce370f4	0.027763821
56	0xbd0457bc	-0.032310233
57	0x3cf4a2ce	0.029862788
58	0xbc465bf6	-0.012106886
59	0xbc40da5d	-0.011770812
60	0x3d016bad	0.03159683
61	0xbbcca808	-0.006245617
62	0x3c5f4fb2	0.013629841
63	0xbc0d6c14	-0.008631725
64	0x3aed80ee	0.0018120089
65	0x3c756a2b	0.014978926
66	0xbcf3d977	-0.029766781
67	0x3d07f990	0.033196986
68	0xbc9d41f9	-0.019196497
69	0x3b767dd3	0.0037611618
70	0xbba7dd60	-0.0051228255
71	0xbd322ae0	-0.04349792
72	0x3d364a17	0.04450425
73	0x3d041a43	0.032251608
74	0xbc20727a	-0.009792918
75	0xbd03952d	-0.032124687
76	0xbc96702b	-0.018364033
77	0x3d0e3c21	0.034725312
78	0xbc27b599	-0.010236167
79	0x3cb9fa78	0.02270244
80	0x3afb18c0	0.0019157156
81	0x3cfbbea0	0.030730546
82	0x3c3c6b65	0.011500214
83	0xbcbb27b3	-0.022846079
84	0xbc53d234	-0.012928534
85	0x3d32daa1	0.043665532
86	0x3ccbda66	0.024884414
87	0x3d201ff5	0.039092977
88	0x3d012dc4	0.031537786
89	0xbd0ca069	-0.034332667
90	0x3d0ce78e	0.034400515
91	0x3d0cb56e	0.034352712
92	0xbd2e67a0	-0.042579293
93	0x3c1db3f7	0.0096254265
94	0xbd216d4f	-0.039410885
95	0xbcc66f29	-0.024222927
96	0x3d1135d4	0.035451725
97	0xbd08e874	-0.03342481
98	0x3d134af2	0.035960145
99	0xbb1b0f82	-0.0023660366
100	0x3c46055f	0.0120862415
101	0xbccb0c71	-0.024786206
102	0xbd173950	-0.03691989
103	0xbc20cf5b	-0.009815062
104	0x3ce21ba5	0.027601073
105	0x3a3e66d5	0.0007263248
106	0xbc154781	-0.009111286
107	0xbb376edf	-0.0027989668
108	0x3c6102e8	0.013733603
109	0xba924ca5	-0.0011161758
110	0xbc91f00e	-0.017814662
111	0x3ceacfe5	0.028663585
112	0x3bbc5a0d	0.0057480396
113	0xbb8287af	-0.00398346
114	0xbc5d2ba2	-0.013499172
115	0xbd206e5d	-0.03916775
116	0x3c7baebd	0.015361485
117	0xbc4df4c9	-0.012570568
118	0xbcf89dde	-0.030348714
119	0xbc9c3b0f	-0.01907113
120	0x3cb21195	0.0217369
121	0x3aee6cb5	0.0018190356
122	0xbd453356	-0.04814466
123	0xbb57eeaa	-0.0032948651
124	0x3cd3dc2d	0.025861824
125	0xbc871884	-0.016491182
126	0x3c867fb7	0.016418321
127	0xbd359e8f	-0.044340666
128	0x3c28cbd0	0.010302499
129	0xbcdecb68	-0.027196601
130	0xbd504cec	-0.05085461
131	0xbd12436b	-0.035708826
132	0xbd0abe97	-0.033873167
133	0x3cd53218	0.026024863
134	0x3c240f5a	0.010013426
135	0xbc30356a	-0.010754922
136	0x3cd7aba6	0.026326966
137	0xbb2956fa	-0.0025839196
138	0x3d185189	0.037187133
139	0x3c9f05cc	0.019411944
140	0xbce6ae22	-0.028159205
141	0xbd5a0686	-0.053228877
142	0xbd0a7656	-0.03380426
143	0xbd143b53	-0.03618939
144	0x3ac9b848	0.0015390003
145	0xbc990a11	-0.018681558
146	0xbbedb82d	-0.0072546215
147	0x3d1f801a	0.038940527
148	0xbc5edb8e	-0.013602151
149	0xbd7505fc	-0.05982016
150	0x3d04d9d5	0.032434303
151	0x3c6497ea	0.013952235
152	0x3ccd4c38	0.025060758
153	0x3cac9704	0.021068104
154	0x3d01f9fe	0.03173255
155	0xbc9ba658	-0.019000217
156	0x3cd11056	0.025520485
157	0xbc9ec74e	-0.019382145
158	0x3c8792a3	0.016549414
159	0x3cf55cbe	0.02995145
160	0xbcfa5bec	-0.03056141
161	0xbd0ecaf0	-0.034861505
162	0xbcc98e45	-0.024603972
163	0xbce9b835	-0.02853022
164	0x3c422834	0.0118504055
165	0xbc960286	-0.01831175
166	0x3b724dde	0.0036972682
167	0xbd248382	-0.040164478
168	0xbc9fc099	-0.019501017
169	0x3cbc43f1	0.022981616
170	0xbcbd079a	-0.023074914
171	0xbb863294	-0.004095385
172	0xba844ed5	-0.0010094295
173	0x3d2fa7e0	0.042884707
174	0xbce88c2a	-0.028387148
175	0xbc5ca1fb	-0.0134663535
176	0x3c8d3f76	0.017242175
177	0x3c9b941c	0.018991522
178	0xbcaf387b	-0.021389237
179	0xbc6e0c03	-0.014529231
180	0xbb0185ce	-0.0019763592
181	0xbcbb1f73	-0.022842145
182	0x3b913ffa	0.0044326754
183	0x3cb684c8	0.022280112
184	0xbc19f142	-0.009395899
185	0x3c920b61	0.017827692
186	0x3c236254	0.009972174
187	0xbcdba92f	-0.026814071
188	0xbca77b49	-0.02044453
189	0x3c52dd09	0.012870082
190	0xbd1d3f22	-0.038390286
191	0x3d03205b	0.03201328
192	0x3d043533	0.032277297
193	0xbd1c3e01	-0.03814507
194	0xbd0973a5	-0.033557553
195	0xbcf82d68	-0.030295089
196	0x3d2e1bb9	0.042506907
197	0x3c72734c	0.014797997
198	0x3c83f38f	0.016107349
199	0x3cc076c2	0.023494128
200	0xba71aef3	-0.000921949
201	0x3ceab808	0.028652206
202	0x3c089d7d	0.008338329
203	0xbd35b651	-0.044363324
204	0xbca0597e	-0.019573923
205	0x39efc18b	0.00045729833
206	0xbbca3241	-0.0061705415
207	0x3cc1a2b0	0.023637146
208	0xbc93f937	-0.01806317
209	0x3d167535	0.03673287
210	0xbcff0171	-0.031128617
211	0xbd3dd183	-0.046342384
212	0x398003c4	0.00024416868
213	0x3c7b42f9	0.015335792
214	0xbcb61a7d	-0.022229427
215	0xbc5570f7	-0.013027421
216	0x3c9408c4	0.018070586
217	0x3c4f7025	0.012661015
218	0xbbb724fe	-0.0055891266
219	0x3c040ab7	0.008059195
220	0x3d16dc5a	0.036831237
221	0xbbbf6cf3	-0.005841845
222	0xbc8204ad	-0.01587137
223	0xbd135213	-0.035966944
224	0xbd528474	-0.05139585
225	0x3d028283	0.031862747
226	0xbcc1e033	-0.023666477
227	0xbd16bee6	-0.03680315
228	0xbd2a9e3f	-0.04165482
229	0xbcd4a5b4	-0.02595792
230	0xbd118fc7	-0.035537507
231	0xbc12f4b8	-0.008969478
232	0xbc90518c	-0.01761701
233	0x3b80f81d	0.0039358274
234	0xbb9c815f	-0.0047761644
235	0xbc8e93c0	-0.017404437
236	0x3c3a9443	0.011387887
237	0x3d24fb07	0.04027846
238	0xbc4239ca	-0.011854598
239	0x3c69116c	0.014225345
240	0xbc8ab7c3	-0.016933328
241	0x3bc5f0b8	0.006040659
242	0x3d0f8c3d	0.03504585
243	0x3ca8c260	0.020600498
244	0x3c2c33fb	0.01051044
245	0xbcfabaaa	-0.030606586
246	0xbd057301	-0.03258038
247	0x3ad84aa2	0.0016501734
248	0x3bffb068	0.0078030117
249	0xbccfe3aa	-0.025377113
250	0xbcbd2278	-0.023087725
251	0x3cb83a08	0.022488609
252	0xbc0065f0	-0.007836804
253	0xbd219fe7	-0.039459135
254	0xbd2e0921	-0.042489175
255	0xbcae27d6	-0.02125923

generator.4.weight f4 [32]
0	0x3f80975e	1.0046194
1	0x3f813779	1.0095054
2	0x3f7cccd8	0.98750067
3	0x3f801a1f	1.0007972
4	0x3f8197b2	1.0124419
5	0x3f7fd171	0.9992896
6	0x3f7e7cb3	0.99409026
7	0x3f807640	1.0036087
8	0x3f7f90b4	0.99830174
9	0x3f80fddf	1.0077475
10	0x3f7e527f	0.9934463
11	0x3f809656	1.0045879
12	0x3f7de959	0.99184185
13	0x3f807d4d	1.0038239
14	0x3f805c7e	1.0028226
15	0x3f80fc05	1.007691
16	0x3f7ffd64	0.9999602
17	0x3f8128e8	1.0090609
18	0x3f7d69f3	0.9898979
19	0x3f7fa994	0.9986813
20	0x3f80efb5	1.0073153
21	0x3f80fac7	1.0076531
22	0x3f809e1a	1.0048249
23	0x3f7eed00	0.99580383
24	0x3f7dccd5	0.99140674
25	0x3f7d9ae8	0.99064493
26	0x3f802bcf	1.0013369
27	0x3f8146cc	1.009973
28	0x3f7f46ce	0.99717414
29	0x3f7f4dd8	0.99728155
30	0x3f7ff122	0.99977314
31	0x3f7d90b1	0.99048907

generator.4.bias f4 [32]
0	0x3c175109	0.009235629
1	0x3bd5b155	0.0065213838
2	0xbb02b2b9	-0.0019942953
3	0x3b55e4d0	0.0032637604
4	0x3c12cab3	0.00895946
5	0x3bd46730	0.0064820275
6	0xbb11e9d4	-0.0022264617
7	0x3c33cb31	0.010973738
8	0x3c53e227	0.012932337
9	0x3bcba239	0.006214407
10	0xbc0fbe78	-0.008773439
11	0x3c11a2f6	0.008888951
12	0xbb99929b	-0.004686666
13	0x3b86d7b0	0.0041150674
14	0x3c126569	0.008935311
15	0x3c3f9553	0.0116933165
16	0x3c1f6852	0.009729462
17	0x3c5e53a1	0.013569743
18	0xbc11020e	-0.0088505875
19	0x3b7bdeb2	0.0038432297
20	0x3ba174c7	0.004927251
21	0x3c267c86	0.010161525
22	0x3ba000b1	0.004882895
23	0x3b5a7fcf	0.003334034
24	0x3930e50f	0.00016869999
25	0x3a9ba2c7	0.0011874073
26	0x3c0a3713	0.008435982
27	0x3c0ef636	0.008725693
28	0x3a561f7f	0.00081681454
29	0xbb437f2f	-0.0029830446
30	0x398dbac1	0.00027032758
31	0xbbf2c8df	-0.0074091996

generator.4.running_mean f4 [32]
0	0xbe0295ed	-0.12752505
1	0xbdb13fb4	-0.086547285
2	0xbd180a84	-0.037119403
3	0x3d5d4b03	0.054026615
4	0xbd151001	-0.036392216
5	0x3d828508	0.0637303
6	0xbd1f7607	-0.03893092
7	0xbd58fe6e	-0.052977018
8	0x3c10c8e8	0.008836962
9	0x3d8bf6ca	0.06834181
10	0xbdc8e579	-0.098093934
11	0xbd47e98b	-0.04880671
12	0xbd8bca25	-0.068256654
13	0xbd38bd8b	-0.045102637
14	0xbda4c68a	-0.08045681
15	0xbdab6a7b	-0.08369919
16	0x3d48516d	0.04890578
17	0x3d931405	0.07181553
18	0x3d43a52e	0.04776495
19	0xbd14806a	-0.036255278
20	0xbc120743	-0.008912864
21	0xbe0f7fdc	-0.14013618
22	0x3e29ce8a	0.16582695
23	0x3d16bcd2	0.036801167
24	0xbd2734e7	-0.040821936
25	0xbd4d2f36	-0.050093852
26	0xbda0b92b	-0.07847818
27	0xbd969e53	-0.07354417
28	0xbde0d8da	-0.10978861
29	0xbdaeea48	-0.08540779
30	0xbd4e62fe	-0.050387375
31	0x3ca81f64	0.02052278

generator.4.running_var f4 [32]
0	0x3deca7cb	0.115554415
1	0x3dd31285	0.10306267
2	0x3de9d1a5	0.1141694
3	0x3dd3a333	0.10333862
4	0x3da30109	0.07959182
5	0x3dcd1418	0.10013598
6	0x3d7bc681	0.061468605
7	0x3d8ffee4	0.070310384
8	0x3da2e0da	0.07953043
9	0x3d5ffcdd	0.05468451
10	0x3d679b6b	0.056544703
11	0x3ddfb865	0.10923842
12	0x3de88eea	0.11355384
13	0x3dc83879	0.09776396
14	0x3e03a895	0.12857278
15	0x3d7c879c	0.061652765
16	0x3d6805a2	0.056645997
17	0x3dd0b716	0.10191171
18	0x3da1a58c	0.07892904
19	0x3ddea0af	0.10870492
20	0x3dfdcfd8	0.12393159
21	0x3dea3f67	0.11437874
22	0x3da859c3	0.08220246
23	0x3e292043	0.16516213
24	0x3e39ebd0	0.18156362
25	0x3d8a3d80	0.067500114
26	0x3e118a86	0.14212999
27	0x3da87d74	0.08227053
28	0x3d9795e8	0.07401639
29	0x3da33457	0.079689674
30	0x3d815ada	0.06316157
31	0x3d6edcfd	0.05831622

generator.6.weight f4 [32, 16, 4, 4]
0	0x3d1781a8	0.036988884
1	0xbcae1cb4	-0.021253921
2	0x3cfeafae	0.03108963
3	0x3d488e81	0.048964027
4	0x3cbab0d3	0.022789394
5	0x3d520149	0.051270757
6	0xbcd7a8e4	-0.02632565
7	0xbc0ebcc3	-0.0087119965
8	0x3cfa3dae	0.03054699
9	0xbb43cae0	-0.0029875562
10	0x3c587e60	0.013213724
11	0xbd1e9c42	-0.038723238
12	0x3c643062	0.013927551
13	0xbd3eb2c5	-0.046557207
14	0xbd6cacc3	-0.057781946
15	0xbd85b619	-0.06528873
16	0x3d54cc9a	0.051952936
17	0x3cd39e3b	0.025832286
18	0x3b580b7e	0.0032965834
19	0xbd68d89a	-0.056847192
20	0xbcf37b24	-0.029721804
21	0x3c9e112a	0.019295294
22	0x3d6436bc	0.05571626
23	0x3d78e58c	0.060765788
24	0xbd4a040e	-0.049320273
25	0xbcd12ec9	-0.025535004
26	0x3d5eb080	0.054367542
27	0xbcd0ef3a	-0.025504697
28	0xbb3cc721	-0.0028805214
29	0xba55590c	-0.0008138574
30	0x3cb85480	0.02250123
31	0x3d0381d5	0.03210624
32	0xbb821e27	-0.0039708796
33	0xbd689d11	-0.056790415
34	0xbc92191f	-0.017834244
35	0x3d269f93	0.040679526
36	0xbd3ed524	-0.046589985
37	0xbd2b9ea1	-0.041899327
38	0x3c99611e	0.018723067
39	0x3d7230eb	0.059128683
40	0xbd01c940	-0.031686068
41	0xbd2d0f76	-0.042251073
42	0x3c49f095	0.012325426
43	0x3d2d68d9	0.04233632
44	0xbc1c247c	-0.009530183
45	0xbd0c1c13	-0.03420646
46	0xbc0b84ab	-0.008515517
47	0xbd5070a8	-0.050888687
48	0xbd1ded7c	-0.03855656
49	0x3d4c746b	0.049915712
50	0x3ad859e0	0.0016506277
51	0xbcec77a6	-0.028865647
52	0xbd298c33	-0.04139347
53	0xbd7573fb	-0.05992506
54	0x3d5b42d8	0.053530544
55	0xbd2f196e	-0.04274886
56	0x3d70e1a6	0.058808945
57	0x3d170f05	0.036879558
58	0x3d81b11f	0.06332611
59	0xbd239222	-0.039934285
60	0xbcd90ca8	-0.026495293
61	0x3d3166e1	0.043311004
62	0x3d3d69a8	0.04624334
63	0x3cb38d91	0.02191809
64	0xbd664311	-0.056216303
65	0x3d76784f	0.06017333
66	0x3d5a76e8	0.053336054
67	0x3c215ea0	0.0098492205
68	0xbcb5f659	-0.022212194
69	0x3d3ccfa1	0.046096448
70	0x3d1887a4	0.037238732
71	0xbd6a596d	-0.05721419
72	0x3d447d43	0.04797102
73	0x3ca6a960	0.020344436
74	0x3c98d59f	0.01865655
75	0x3b966f55	0.0045909085
76	0xbd339d42	-0.043851145
77	0x3d0ad18a	0.03389124
78	0x3d82a7bb	0.06379648
79	0x3ce831b4	0.028344013
80	0x3d81384f	0.06309568
81	0xbd4c5917	-0.04988965
82	0x3d842815	0.064529575
83	0xbc28d2e7	-0.010304189
84	0xbceff965	-0.029293725
85	0x3d4c00bf	0.0498054
86	0xbc551b6b	-0.013007025
87	0xbd1a9d9c	-0.037747964
88	0x3ce8c68e	0.02841499
89	0xbd8a425d	-0.06750939
90	0x3d484fdb	0.04890428
91	0x3d745d5b	0.059659343
92	0xbcf32093	-0.029678619
93	0x3d0e710b	0.034775775
94	0x3d1b07f0	0.037849367
95	0xbc978adc	-0.01849883
96	0x3c9abc5e	0.018888649
97	0xbd330a48	-0.043710977
98	0xbd0b8055	-0.034057934
99	0xbc913d21	-0.017729344
100	0x3c32a23c	0.0109029375
101	0x3d390783	0.04517318
102	0x3c975ad3	0.018475926
103	0xbbece8aa	-0.007229884
104	0x3d003e29	0.03130928
105	0x3d425a0a	0.04744915
106	0xbc8df55d	-0.017328912
107	0xbd5f3884	-0.054497257
108	0xbbc604e9	-0.006043066
109	0x3d3e14d0	0.046406567
110	0x3c0681b7	0.008209637
111	0x3c6a0c0e	0.014285101
112	0x3d77c594	0.06049116
113	0x3acb119f	0.0015492922
114	0x3d311b3b	0.04323886
115	0xbcb9d3f1	-0.02268407
116	0xbd441ba4	-0.047877923
117	0xbd3d77e8	-0.04625693
118	0x3d187152	0.037217446
119	0x3d688197	0.05676421
120	0xbc628586	-0.01382578
121	0x3d211c9b	0.03933392
122	0xbd5c3a21	-0.053766374
123	0xbd584687	-0.052801635
124	0xbc34f9af	-0.011045857
125	0xbd4c6348	-0.04989937
126	0x3d6165c5	0.055028696
127	0x3d2b8327	0.041873123
128	0xbce3076c	-0.0277135
129	0xbd32cbd6	-0.043651424
130	0xbcce2971	-0.025166245
131	0xbcac24b9	-0.021013604
132	0x3c6f4b36	0.014605334
133	0xbd637c36	-0.05553838
134	0xbcd69494	-0.026193894
135	0xbc4dc283	-0.012558582
136	0x3acc780c	0.0015599742
137	0x3d330085	0.043701667
138	0x3c803676	0.015650969
139	0xbd69929b	-0.05702458
140	0x3d47ab05	0.04874708
141	0xbd056bd1	-0.032573525
142	0xbd508d69	-0.05091611
143	0xbb8f57ef	-0.004374496
144	0x3d2ea045	0.042633314
145	0xbd4c958a	-0.0499473
146	0xbbbc63e0	-0.0057492107
147	0x3d36efd1	0.0446623
148	0xbd82e1b4	-0.06390706
149	0x3c83f81b	0.016109517
150	0x3cf54e4d	0.029944563
151	0xbd80c0df	-0.06286787
152	0xbd660138	-0.056153506
153	0x39f47177	0.00046623845
154	0xbd1c361f	-0.03813755
155	0xbd18f7d3	-0.03734572
156	0xbd4c1138	-0.04982111
157	0xbd764b9c	-0.0601307
158	0xbcef3704	-0.029201038
159	0xbcd54703	-0.026034838
160	0x3b21b148	0.0024672318
161	0x3d12c6b8	0.035834044
162	0xbcedc462	-0.029024307
163	0xbcbd6945	-0.023121485
164	0xbd4cf7f5	-0.050041158
165	0xbd05467a	-0.032537915
166	0x3d62cd58	0.055371612
167	0x3d08c6bf	0.033392664
168	0x3aecb336	0.001805878
169	0xbcf5de2c	-0.030013166
170	0x3d6cd46d	0.057819773
171	0xbcada31d	-0.021195943
172	0x3d79476a	0.06085912
173	0x3cc99c40	0.024610639
174	0xbd4bb764	-0.04973544
175	0x3c027983	0.007963541
176	0xbc7a7f75	-0.015289177
177	0x3ce6aec7	0.028159512
178	0xbc9345d4	-0.017977633
179	0x3c1565a6	0.009118473
180	0xbd7e35af	-0.062062915
181	0x3c3f37df	0.011671036
182	0x3b3cd119	0.0028811155
183	0xbbd1c587	-0.006401721
184	0xbd0baee8	-0.03410235
185	0xbcab02b6	-0.020875316
186	0xbd3f2b71	-0.04667229
187	0x3c02de0c	0.00798751
188	0xbd56cc3f	-0.052440878
189	0xbd05e86b	-0.032692354
190	0x3d440468	0.047855765
191	0x3d527e7b	0.051390152
192	0xbc0660b1	-0.008201764
193	0xbcb145da	-0.021639753
194	0x3cb58a4d	0.022160674
195	0xbd526add	-0.051371444
196	0x3cb1b6e6	0.021693658
197	0x3d5e59cc	0.054284856
198	0xbc834171	-0.016022416
199	0x3b314cdf	0.0027053875
200	0xba3677a4	-0.0006960577
201	0xbb18e32d	-0.0023328767
202	0x3d3df3fe	0.046375267
203	0xbc68b085	-0.014202242
204	0xbbaac9c4	-0.0052120406
205	0xbc83c6f4	-0.01608608
206	0x3a6d30b2	0.00090480887
207	0xbcd456ce	-0.025920298
208	0x3be478bb	0.0069724
209	0x3cd06941	0.025440814
210	0xbd40dc68	-0.047085196
211	0x3c034310	0.008011594
212	0x39c01545	0.0003663694
213	0x3d24cbd0	0.040233433
214	0x3cedfdd5	0.0290517
215	0x3d71c97a	0.059030034
216	0xbd83bfc7	-0.06433063
217	0x3c263043	0.010143342
218	0xbc28306c	-0.010265451
219	0xbd605c0e	-0.05477529
220	0x3d1926af	0.037390407
221	0xbd50d19c	-0.05098115
222	0x3cc82dc3	0.024435883
223	0x3c2f7b4d	0.01071055
224	0xbb33a125	-0.0027409282
225	0x3cb5dd2a	0.022200186
226	0x3d5c73e4	0.05382146
227	0xbc5e8e76	-0.01358377
228	0xbc9f36ad	-0.019435251
229	0xbb8f0cea	-0.004365553
230	0xbd3b117d	-0.045670975
231	0xbc5c9d03	-0.013465169
232	0xbc1f3e4d	-0.0097194435
233	0xbc799dab	-0.015235345
234	0xbd0226ff	-0.03177547
235	0xbcfc4b3a	-0.03079759
236	0xbc87b296	-0.016564649
237	0x3c9012df	0.017587123
238	0xbcba97f0	-0.022777528
239	0x3cbff5bc	0.023432605
240	0x3b6cef15	0.0036153246
241	0x3c276ebc	0.010219272
242	0x3be7c8bc	0.00707349
243	0x3c5fe523	0.01366547
244	0xbd656418	-0.05600366
245	0x3bc49970	0.0059997365
246	0x3cdb3e9e	0.026763257
247	0x3d218ce0	0.03944099
248	0xbd1e23c1	-0.038608316
249	0x3b76d2a9	0.0037662184
250	0x3c3b8b3b	0.011446769
251	0xbd7abf2e	-0.06121748
252	0x3d39eb3d	0.045390356
253	0xbc998919	-0.018742131
254	0xbd4f2eed	-0.05058186
255	0x3b985a64	0.0046494473

generator.7.weight f4 [16]
0	0x3f7d8801	0.9903565
1	0x3f819b9d	1.0125614
2	0x3f7f41d3	0.99709815
3	0x3f7f3e7a	0.99704707
4	0x3f7c0b99	0.98455197
5	0x3f7f50fb	0.9973294
6	0x3f7d9200	0.99050903
7	0x3f80be94	1.005816
8	0x3f812bd5	1.0091501
9	0x3f7f00ca	0.9961058
10	0x3f7f6cae	0.9977521
11	0x3f7f191e	0.996477
12	0x3f7de64f	0.9917955
13	0x3f7d2c37	0.9889559
14	0x3f7dbec3	0.99119204
15	0x3f7e6eb2	0.9938766

generator.7.bias f4 [16]
0	0xbbb5ccb4	-0.005548084
1	0x3c141045	0.009037082
2	0xbada71f0	-0.0016666036
3	0xbaa6bd60	-0.0012721233
4	0xbc45d697	-0.012075088
5	0xbc4101bd	-0.0117802
6	0xbbdd5f3e	-0.0067557385
7	0x3c32cb8b	0.010912786
8	0x3c14efe4	0.0090903975
9	0x3c200be3	0.009768459
10	0x3c010645	0.00787503
11	0xbbe0120c	-0.006838089
12	0xbb89dfef	-0.004207603
13	0xba4610b4	-0.00075555895
14	0xbc391fa2	-0.011299046
15	0xbc070d1b	-0.008242871

generator.7.running_mean f4 [16]
0	0xbcbe2597	-0.023211284
1	0x3c73ae4b	0.014873098
2	0xbd2d197f	-0.042260643
3	0xbd30e6fc	-0.043189034
4	0x3e0d6c48	0.13810837
5	0xbd8ee0f4	-0.069765
6	0x3cc836ca	0.024440188
7	0x3db2cbca	0.08730276
8	0xbd96cc0b	-0.07363137
9	0xbd7cf315	-0.06175526
10	0x3ca21de8	0.019789651
11	0x3ce412f4	0.027841069
12	0x3cf1938a	0.029489297
13	0xbd3a2f48	-0.045455247
14	0xbe1b8987	-0.15189181
15	0xbdf5317a	-0.119723275

generator.7.running_var f4 [16]
0	0x3e082ce5	0.13298376
1	0x3d96185b	0.07328864
2	0x3dc686b5	0.09693662
3	0x3e17a514	0.14809066
4	0x3d8b2bae	0.067954406
5	0x3d53472a	0.05158154
6	0x3dfa7303	0.12228968
7	0x3da25b96	0.07927625
8	0x3d8d11c1	0.06888152
9	0x3da14516	0.07874505
10	0x3db5194f	0.08842718
11	0x3d4fa0eb	0.050690573
12	0x3d966343	0.073431514
13	0x3dcdab51	0.10042442
14	0x3db62617	0.08893984
15	0x3d70aa0d	0.058755923

generator.9.weight f4 [16, 1, 3, 3]
0	0xbe3a2249	-0.18177141
1	0x3e72d600	0.23714447
2	0x3e584f38	0.2112397
3	0xbe5ff266	-0.21869811
4	0xbd2d70c9	-0.04234389
5	0xbe0abfb5	-0.13549693
6	0x3e6756cb	0.22591703
7	0x3e9711a3	0.29505643
8	0xbe10d4bb	-0.1414365
9	0xbe0146d6	-0.12624678
10	0xbdc6ca04	-0.097065
11	0x3d189a07	0.037256267
12	0xbd1d3a6d	-0.038385797
13	0x3e180491	0.14845492
14	0x3e9b006a	0.30273753
15	0x3da6a584	0.08137038
16	0x3ce2dee7	0.027694179
17	0x3d8d17bf	0.06889295
18	0x3d7ae9f9	0.06125829
19	0x3db9a7d2	0.09065212
20	0x3e7a9880	0.24472237
21	0x3c510fd0	0.012760118
22	0xbe54f790	-0.20797563
23	0x3d3370cf	0.043808755
24	0x3de26e2f	0.11056172
25	0xbe6676ac	-0.22506207
26	0xbc371698	-0.01117482
27	0xbe69e0b6	-0.22839627
28	0xbe790279	-0.2431735
29	0xbe774c1e	-0.2415013
30	0xbe29a3b5	-0.16566356
31	0x3e91e261	0.28493026
32	0x3e5a6557	0.2132772
33	0x3e3f86c6	0.18703756
34	0xbda08f82	-0.07839872
35	0x3e9753db	0.29556164
36	0x3e24d685	0.16097458
37	0xbe15eac2	-0.14640334
38	0x3e970a57	0.29500076
39	0xbe95e39c	-0.29275215
40	0x3cb2612f	0.021774856
41	0xbe1f76fc	-0.15572733
42	0xbe180d85	-0.14848907
43	0xbe55b281	-0.20868875
44	0x3e9d1a8a	0.3068431
45	0x3c43856d	0.011933667
46	0xbd9bc7b9	-0.076064534
47	0xbdb6a1c1	-0.08917571
48	0xbd24ac22	-0.04020322
49	0xbe75af9f	-0.23992775
50	0xbe9e44b3	-0.30911788
51	0xbe90ab19	-0.28255537
52	0x3df5aeb9	0.11996216
53	0x3db15a1e	0.086597666
54	0x3e8af42d	0.27139416
55	0x3e8eb432	0.27871853
56	0xbe180e8b	-0.14849298
57	0xbe127911	-0.14303996
58	0xbe8f69b1	-0.28010324
59	0xbe291c43	-0.16514687
60	0x3db47be9	0.088126965
61	0xbe7f7af4	-0.24949247
62	0x3e54a51e	0.20766112
63	0xbe3d28b4	-0.18472558
64	0x3e8c0312	0.27346092
65	0x3ead11d0	0.33802652
66	0xbe2fae23	-0.17156272
67	0xbdf28958	-0.118426025
68	0x3e8ba7dc	0.27276504
69	0x3e9b6807	0.30352804
70	0xbbce57d6	-0.006297092
71	0x3dd7f02d	0.10543857
72	0x3e87df51	0.26537564
73	0x3e5b976a	0.21444479
74	0xbba360f5	-0.0049859234
75	0xbd43ff11	-0.047850672
76	0xbdd03e27	-0.101681046
77	0x3d6107c0	0.05493903
78	0xbdcf0ec9	-0.10110242
79	0x3e93e0da	0.28882486
80	0x3e5f0191	0.21777941
81	0xbcc5cd67	-0.024145795
82	0x3e92bf7b	0.28661713
83	0xbe0f5c60	-0.14000082
84	0x3c81acad	0.015829409
85	0x3eabbbb3	0.3354164
86	0x3dfdb772	0.12388505
87	0xbdf329cb	-0.11873206
88	0xbe77771e	-0.24166533
89	0xbdafb874	-0.085801035
90	0x3e1b89cc	0.15189284
91	0x3d9777c0	0.073958874
92	0x3c84f162	0.016228382
93	0xbe032ae3	-0.12809329
94	0xbe9290aa	-0.28625995
95	0xbcd3013d	-0.025757426
96	0x3e78a7d7	0.24282776
97	0x3e7c17be	0.24618432
98	0x3e73a023	0.23791556
99	0xbe08c6d2	-0.13357094
100	0xbdd6356d	-0.10459409
101	0x3e02e663	0.12783198
102	0xbe8840b7	-0.26611874
103	0x3e8f7f05	0.28026596
104	0xbe9b3ccc	-0.30319822
105	0xbe2f1f6a	-0.17101827
106	0xbdf280e5	-0.11840991
107	0x3ca23086	0.019798528
108	0xbe0630e1	-0.13104583
109	0x3cfc9144	0.030830987
110	0x3e982d71	0.2972217
111	0x3e08b6b0	0.1335094
112	0xbe7f99ee	-0.24961063
113	0xbd9f298c	-0.07771596
114	0x3d546e6f	0.05186313
115	0xbe0e25d2	-0.13881615
116	0x3d05d74f	0.032676037
117	0xbe397a21	-0.18112995
118	0xbe7053b1	-0.23469426
119	0xbe4fc792	-0.20290974
120	0x3e740235	0.23828967
121	0x3e0e6a96	0.13907847
122	0x3dac4ac5	0.08412699
123	0x3e9e2c8a	0.30893356
124	0xbe703e3a	-0.23461238
125	0xbe68fb7c	-0.22752184
126	0xbe21999e	-0.15781257
127	0xbdd84b9c	-0.10561296
128	0xba1dd1ef	-0.0006020357
129	0xbe12eab5	-0.14347346
130	0x3e9a2b69	0.30111244
131	0xbea1397f	-0.3148918
132	0x3ddb3f32	0.10705413
133	0xbe8542cb	-0.26027521
134	0x3e884eef	0.26622722
135	0x3e982046	0.29712123
136	0x3dfa9e18	0.12237185
137	0x3d5f8b40	0.05457616
138	0xbe872f26	-0.2640316
139	0xbe200c72	-0.15629748
140	0xbe8b1a4b	-0.27168497
141	0xbe4b1843	-0.19833474
142	0xbe625494	-0.22102576
143	0xbea52fb2	-0.3226295
