models/novelty_gan_MNIST_replay_False_best_generator.model (torch, 236890 bytes, 16 tensors)

generator.0.weight f4 [10, 64, 5, 5]
000000 65 cc 3a 39 35 2b 80 3c 81 5b b6 bc a2 69 7f bc
       0.00017814485 0.015645603 -0.02226043 -0.01558915
000010 93 d0 37 bc 56 33 b9 3b 10 1e f0 39 29 bc af 3c
       -0.011219162 0.0056518717 0.00045798765 0.021452026
000020 8b cd 00 3a b3 44 b4 3b 00 e5 13 bc af 36 42 ba
       0.0004913441 0.0055013536 -0.009026766 -0.0007408661
000030 35 ea a5 bc 06 19 98 bc f7 d9 fa bb 83 e3 b7 3b
       -0.02025328 -0.01856662 -0.007655378 0.0056118383
000040 6c 85 a9 3b f2 c8 25 3c ea 2e 9b bc 26 e4 12 bc
       0.005173376 0.01011871 -0.018943269 -0.008965528
000050 00 09 44 3c 48 04 dc 3c 40 ff e1 bb 14 20 7a 3c
       0.011965036 0.02685751 -0.0068968832 0.015266437
000060 a6 84 88 bb eb e6 c6 3b 86 c0 c4 3c 47 11 96 bc
       -0.0041662036 0.006070008 0.024017584 -0.018318785
000070 81 de 4f bc ae 61 0a bc 84 6c 24 bc b3 51 c5 3c
       -0.012687326 -0.00844614 -0.010035638 0.024086809
000080 6a 54 a8 bc 6b 33 73 bc ca d5 45 bc ef 9a 97 bc
       -0.020548064 -0.014843802 -0.012074897 -0.018506495
000090 e1 53 a5 bc 94 57 ca 3c 19 ba 38 3c 9a c9 54 3c
       -0.020181598 0.024699964 0.011274838 0.012987519
0000a0 9e e6 03 bb 11 4b 32 bc ce 0b e5 3b ed 70 aa bc
       -0.0020126472 -0.010882155 0.0069899326 -0.0208058
0000b0 42 8d 90 bc 04 34 18 bc f1 64 71 3c ef db 1e 3c
       -0.017645482 -0.009289745 0.014733539 0.009695991
0000c0 62 24 f4 bb 37 1f 8b bb 67 7a 46 3c eb 06 c7 3c
       -0.007450626 -0.0042456645 0.012114144 0.024295291
0000d0 c4 b7 53 3c 73 0a c3 3a 38 e5 3b 3c 29 bf 9a bc
       0.012922231 0.0014880433 0.011468224 -0.01888998
0000e0 0c ce e5 3b 9b d6 cd bc 14 08 79 bc e1 dd 31 bc
       0.007013088 -0.025126746 -0.01519968 -0.010856123
0000f0 ce 45 0e 3c 3c 22 41 3c 75 38 83 bc f3 0f c2 3b
       0.008683635 0.011787947 -0.016018132 0.0059223115
000100 d4 d7 55 3c 3b 97 64 bb 28 15 5a ba b3 0d c3 ba
       0.013051946 -0.003488018 -0.00083191926 -0.0014881402
000110 78 23 68 3c d3 42 de 3c 27 75 af bc b5 83 71 bc
       0.014168613 0.027131474 -0.021418167 -0.014740874
000120 b3 c7 0e 3c c4 c1 73 3c 26 67 74 3c 43 11 86 3c
       0.008714604 0.01487774 0.014917171 0.016365653
000130 57 2c 42 3b 32 45 a3 bc 71 13 de ba 00 23 8a bc
       0.002962848 -0.019930456 -0.001694305 -0.016862392
000140 a6 76 b8 bc a2 41 ba 3c 30 3e be 3c 89 53 da bc
       -0.022517513 0.022736374 0.023223013 -0.02665116
000150 ea 52 ee 3b aa 17 eb bb 35 a5 22 bc d8 eb 67 bc
       0.0072730677 -0.007174452 -0.009927084 -0.014155351
000160 18 0f c2 3b 7a 1d 70 bc 6c 8c 0d 3c 8a 13 29 3c
       0.0059222095 -0.014655465 0.008639436 0.0103196
000170 20 bf 62 3c 15 42 49 3c 86 6d ae bc 0f bc 9a bc
       0.013839513 0.012283822 -0.02129246 -0.018888501
000180 93 1a 6d 3c 49 d2 fb 3b e4 29 92 bc bb ee 8d bc
       0.014471668 0.00768498 -0.01784224 -0.01732575
000190 3e 95 ce 3c 48 a6 80 3c ab 30 01 bc 6f d3 a3 ba
       0.025217649 0.01570429 -0.0078851385 -0.0012498925
0001a0 85 9e c9 bc 27 82 30 ba 9d 98 6e bc dc 25 96 bc
       -0.02461172 -0.00067332614 -0.014562753 -0.0183286
0001b0 78 ef 13 3b d6 56 5c 3b 2e 17 71 bc 38 c2 44 3c
       0.0022573154 0.0033621094 -0.014714999 0.012009196
0001c0 d7 25 9c bc 45 38 95 3c 29 7c a9 3c c7 98 c0 bc
       -0.019061012 0.018215308 0.020689087 -0.02351035
0001d0 d8 04 23 bc d6 38 25 3b 9b 87 88 3b 10 e4 91 3b
       -0.009949885 0.0025210879 0.004166556 0.004452236
0001e0 1e 15 25 3c c9 a5 ea 3a 46 6d 17 bc 2b 5e 4a 3c
       0.0100758355 0.0017902191 -0.009242361 0.012351553
0001f0 da 31 c5 bc 05 ba 2c bc 67 5e 3b bb ac c7 69 bc
       -0.024071623 -0.010542397 -0.0028590204 -0.014268797
000200 b0 e6 c4 bb 25 d9 9e bc d6 c9 f6 bb f0 e1 82 3b
       -0.0060089454 -0.019390652 -0.007531385 0.003994219
000210 08 f3 93 bc 29 7d bc bb fe b9 99 3c 01 b2 ae ba
       -0.018060222 -0.005752225 0.018765446 -0.0013328196
000220 8f e6 ea b8 ae 00 bb bb 61 f9 b0 3a 84 58 67 3c
       -0.000112009344 -0.005706868 0.0013502055 0.014120225
000230 86 6e 99 3c 3f 57 15 3c f1 cb ce 3c 4e ae 8c b9
       0.01872946 0.009115039 0.025243731 -0.00026832748
000240 bf 8e df bc 74 e8 74 bc 85 9a 85 3c 36 d5 de b6
       -0.027289746 -0.014947999 0.016309032 -6.6409366e-06
000250 51 8e 29 bc bf 85 83 bc 4b fd 92 bc 13 3a a0 bc
       -0.010348872 -0.016054986 -0.017943045 -0.019558942
000260 f9 44 c9 bb e9 4f 7d 3c 13 b5 48 3c 4b 00 ec bc
       -0.0061422554 0.015460947 0.012250203 -0.028808733
000270 14 1b 83 3c 1f db a5 bc fd 5b 04 bb 7b 6d 26 bc
       0.016004123 -0.020246087 -0.002019643 -0.010157938
000280 48 4c ee bb bc db 88 bb 33 63 90 bc 53 79 ae bc
       -0.007272277 -0.004176585 -0.017625427 -0.021298086
000290 1c 09 ce bb a4 e2 3d ba 9f e7 00 bc 52 42 54 3c
       -0.006287707 -0.000724355 -0.007867723 0.012955265
0002a0 5e a5 94 bc a0 97 55 ba 05 f7 cd 3c 9a e1 07 bc
       -0.01814526 -0.0008147899 0.025142202 -0.008293534
0002b0 ba fb 96 3c aa dd 44 3c 41 48 94 bc e4 bb 71 3c
       0.01843058 0.012015739 -0.01810086 0.014754269
0002c0 ee 34 3d bb b6 10 8b bc 4a 64 92 3c 2e cf 8e bc
       -0.002887066 -0.016975742 0.017870087 -0.017432775
0002d0 8a 37 88 3b f4 61 c2 bb 07 fe 66 3c 13 db 24 3c
       0.0041570114 -0.005932087 0.014098651 0.010061997
0002e0 f8 97 1d 3c 2a e1 11 3c 34 d5 48 bb 33 1f d1 bb
       0.009618752 0.008903781 -0.0030644657 -0.006381893
0002f0 f4 29 c8 bc e0 9d 0a 3c ab c4 ad 3c eb 3d 32 3c
       -0.024434067 0.008460492 0.021211943 0.01087902
000300 f9 8d 9e bc ea fa 0e 3b 39 ab 2e bc e5 67 74 bc
       -0.019354807 0.0021817037 -0.01066094 -0.0149173485
000310 5b 02 61 bc 90 56 1f 3c 3a 58 51 bc 44 9e 3a 3b
       -0.013733472 0.009725228 -0.0127773825 0.0028475681
000320 a0 e5 22 bb 4f 2b 97 3c 6a 0c b4 bc af 5d b5 bc
       -0.0024856105 0.018453268 -0.021978576 -0.022139398
000330 6d 67 31 bc bf 59 6d 3c 18 b1 01 bc 06 0f 81 3c
       -0.010827881 0.014486729 -0.007915758 0.015754234
000340 59 65 44 3c 4a dc e6 3a 84 aa 36 bb 80 79 28 bb
       0.011987054 0.0017613259 -0.0027872631 -0.0025707185
000350 1b 59 62 3b 3d 91 f2 bb cc 3c 83 3b 39 1a f8 3b
       0.0034537974 -0.0074025677 0.0040050503 0.0075714854
000360 51 0c 8c bc 2e de 59 bc 6d da 99 3c 54 f3 bb bc
       -0.017095717 -0.013297601 0.018780911 -0.022943176
000370 0c a2 74 ba 91 55 dc 3c 0e e9 20 3c c4 32 9e ba
       -0.0009332008 0.02689627 0.00982119 -0.0012069573
000380 b2 0d de bc 25 4f 27 3c b6 24 aa bc fe 38 fe bb
       -0.02710614 0.010211741 -0.020769458 -0.007758259
000390 aa f5 3b bc 21 99 92 bb 04 e5 09 bb a3 bb 9d 3c
       -0.011472145 -0.004473821 -0.0021041045 0.019254511
0003a0 c3 fa d4 3b a1 74 b7 3c b7 c7 8b 3c 70 77 55 bc
       0.0064996197 0.02239448 0.017063005 -0.013028964
0003b0 71 8d 6a 3c 71 00 93 bc ef db df bb b8 47 be 3b
       0.014315949 -0.017944546 -0.006831638 0.0058068894
0003c0 37 97 1f 3c 57 4d 7e 3c 9e 3b 0d bc 76 7c ca ba
       0.009740642 0.015521369 -0.008620171 -0.0015448469
0003d0 92 13 7d 3c 4c 56 e7 bc 96 6b a1 3c ce 61 ba bc
       0.01544656 -0.028239392 0.019704621 -0.022751715
0003e0 94 bc 31 37 1b 13 56 3a 04 b9 4c bc cb 93 be 3b
       1.0593929e-05 0.0008166299 -0.012495283 0.005815958
0003f0 81 99 bd 3c a5 fc 2d bc 1f 82 50 bc c5 35 47 bc
       0.023144485 -0.010619317 -0.012726336 -0.012158816

generator.1.weight f4 [64]
000000 e9 ed 7e 3f ff ab 80 3f 91 77 80 3f e6 2a 7e 3f
       0.9958177 1.0052489 1.0036489 0.9928421
000010 fe dd 7e 3f e2 ec 7e 3f 91 1a 80 3f 90 de 80 3f
       0.99557483 0.99580204 1.0008107 1.0067921
000020 b1 d9 7e 3f ab de 7f 3f 8f 72 80 3f 83 89 7e 3f
       0.9955092 0.9994914 1.003496 0.99428576
000030 3f 9d 7f 3f 08 17 80 3f 2c 4b 80 3f 9a 0b 81 3f
       0.99849313 1.0007029 1.0022941 1.0081666
000040 f3 7b 7f 3f bb 9e 7f 3f 43 2d 80 3f cd 71 80 3f
       0.99798506 0.9985158 1.0013813 1.0034729
000050 e7 96 80 3f d6 0b 80 3f d4 a2 7f 3f 47 83 7e 3f
       1.0046052 1.0003612 0.9985783 0.99419063
000060 76 52 80 3f c4 2c 7f 3f ce 5d 80 3f bd 91 80 3f
       1.0025165 0.9967768 1.0028627 1.0044476
000070 bf 39 80 3f 2a e4 7f 3f 9e e5 80 3f e1 f9 7e 3f
       1.0017623 0.99957526 1.0070074 0.99600035
000080 3f 58 80 3f aa bf 80 3f 40 8c 80 3f 8a 9b 7e 3f
       1.002693 1.0058491 1.0042801 0.99456084
000090 94 f5 7f 3f 64 52 80 3f aa cd 7e 3f 5c e6 7f 3f
       0.999841 1.0025144 0.9953257 0.99960876
0000a0 9b 21 80 3f ac 49 80 3f d1 4f 7f 3f 13 69 80 3f
       1.0010256 1.0022483 0.99731165 1.0032066
0000b0 a0 5b 80 3f 29 37 80 3f 70 36 80 3f 8b 36 7f 3f
       1.0027962 1.0016834 1.0016613 0.996926
0000c0 2b ea 7f 3f bc 3a 7f 3f 81 c1 7f 3f 96 94 7f 3f
       0.99966687 0.99698997 0.9990464 0.998361
0000d0 22 95 7f 3f 55 9c 7f 3f a8 4e 7f 3f 7f 11 80 3f
       0.99836934 0.9984792 0.99729395 1.0005339
0000e0 15 2b 81 3f 3b 80 7f 3f f4 11 7f 3f 92 10 80 3f
       1.0091273 0.9980504 0.9963677 1.0005057
0000f0 fb ee 7f 3f fe bf 7f 3f c4 6c 7e 3f ab 2b 7f 3f
       0.9997403 0.9990233 0.99384713 0.9967601

generator.1.bias f4 [64]
000000 86 c4 8c 3a 9c c7 eb 3b c8 da e6 3b ae db 54 ba
       0.0010739721 0.007195426 0.0070451237 -0.0008119893
000010 53 06 f8 ba dc b9 14 bb bf 98 1a 3b 25 23 e4 3b
       -0.0018922783 -0.0022693789 0.002358958 0.0069621974
000020 d9 33 1e 3b 42 13 98 3b 54 a3 b8 3b b8 ba 8b 3b
       0.002413979 0.0046409676 0.0056347046 0.004264202
000030 59 03 80 3b 49 72 3c 3b c2 48 a0 3b 2e 55 06 3c
       0.003906649 0.0028754643 0.004891486 0.008199019
000040 00 13 a9 3a d3 6d 7c ba d6 b3 7a ba f3 b1 9b 3b
       0.0012899339 -0.0009629402 -0.0009563541 0.004751438
000050 ed 5b bf 3b 96 c8 e3 3b a4 b3 8a ba c1 ac 1b bb
       0.005839816 0.006951402 -0.0010582102 -0.0023754092
000060 cd 5f 57 3b ab 90 2d 3b e4 d6 cc 3b ec 03 4c 3b
       0.0032863498 0.0026483934 0.006251203 0.0031130267
000070 73 ff b5 3b 15 e8 fd 3a b7 ff f2 3b 8a d1 71 3b
       0.0055541336 0.0019371534 0.0074157375 0.0036898577
000080 1a ff d1 3b d7 d1 eb 3b 94 df ec 3b 5b 67 68 39
       0.0064085843 0.0071966457 0.007228801 0.00022163747
000090 2d 3c 89 3b 88 42 ec 3b bf b7 89 39 41 07 20 3b
       0.0041880817 0.0072100796 0.00026267578 0.0024418386
0000a0 9d 50 97 3b be 27 98 3b 00 0f c3 ba 3b 51 a9 3b
       0.004617764 0.0046434095 -0.001488179 0.005167154
0000b0 ab 2b 00 3b 3b fc db 3b b2 bc 5a 3b ae ed 27 bb
       0.0019557278 0.006713418 0.0033376631 -0.0025623846
0000c0 c0 72 e7 3a fa 82 51 ba cd e2 63 3b c7 22 1c 3b
       0.00176581 -0.00079922343 0.0034772635 0.002382444
0000d0 0c a4 20 ba 97 37 f7 3a 33 1a c0 3a 55 92 1b 3b
       -0.00061279605 0.0018861172 0.0014656245 0.0023738344
0000e0 12 7d 2b 3c b6 94 03 3b ae 6c e5 ba 97 a7 2d 3b
       0.010466831 0.0020077652 -0.0017503703 0.0026497596
0000f0 28 51 88 3b ec 4f 86 3b ef 71 84 bb e0 b3 3e bb
       0.004160065 0.004098883 -0.0040419023 -0.0029098913

generator.1.running_mean f4 [64]
000000 6c bd 51 3a 3a 49 f2 b9 37 7e 95 39 95 e7 c5 b9
       0.00080009433 -0.00046212395 0.00028513532 -0.0003774731
000010 24 a6 dd b8 75 41 8f b9 9c 8f 6a 3a 48 1b c4 b9
       -0.00010569047 -0.00027323855 0.0008947791 -0.0003740436
000020 ea 0b 63 ba b8 ae 79 39 77 0c 61 b9 db 9a cf 39
       -0.0008661138 0.00023811578 -0.00021462316 0.00039597493
000030 26 7a b1 b9 c0 dd 70 39 19 92 bb 3a e9 9d 62 3a
       -0.00033851078 0.00022970792 0.0014310508 0.0008644746
000040 cb c4 a5 ba af 0f 59 b7 32 13 31 3a 7a 93 96 39
       -0.001264715 -1.29378595e-05 0.00067548745 0.00028720108
000050 c2 0d b0 b8 e7 b4 0d 3a be 76 b4 b8 76 bf 26 3a
       -8.3948966e-05 0.00054056797 -8.605186e-05 0.00063609274
000060 53 04 30 3a d8 d4 a6 39 cf 49 61 ba a2 bb 81 38
       0.00067145115 0.00031820568 -0.0008594067 6.186149e-05
000070 fe 11 83 39 9f 36 b0 3a e3 80 3b 39 66 6d 06 b9
       0.00024999672 0.0013444013 0.00017881724 -0.0001281999
000080 9f 02 67 3a 5e 47 ff b9 ab 4a 0a 3a 5f 81 f0 b8
       0.0008812341 -0.00048690563 0.00052754086 -0.00011468189
000090 06 71 b2 3a f9 9f bf b8 d4 72 ee 38 ac 4c 11 b7
       0.0013614006 -9.137387e-05 0.00011370113 -8.660525e-06
0000a0 f1 bd 67 3a ec 18 84 39 ec c8 40 3a ab cc eb 38
       0.0008840254 0.0002519557 0.00073541584 0.000112437956
0000b0 af ed 60 b7 c0 83 ab 3a c5 17 22 39 5d d8 9e b9
       -1.340678e-05 0.0013085529 0.00015458379 -0.00030297312
0000c0 83 b3 c5 ba da f8 e2 39 40 c1 ad 39 f4 7b 28 3a
       -0.0015083406 0.00043291488 0.00033141114 0.0006427162
0000d0 e9 bc 3b b9 7e 43 e2 b8 67 4e 36 b9 73 7a 21 b9
       -0.00017904084 -0.00010789091 -0.0001738608 -0.00015399772
0000e0 42 40 17 b7 bb 54 1e ba a2 3c d1 b9 19 1c 96 3a
       -9.015263e-06 -0.00060398475 -0.0003990876 0.0011452466
0000f0 86 51 2e 3a 13 66 e0 39 8c 56 09 39 80 8a eb 39
       0.0006649721 0.0004280066 0.0001309758 0.00044925883

generator.1.running_var f4 [64]
000000 dc d9 f5 3a 2b cc 07 3b f6 2b fd 3a 72 14 15 3b
       0.0018756944 0.0020721059 0.001931547 0.0022747782
000010 c1 ef 07 3b e2 81 fb 3a 5c 41 01 3b 06 7b 03 3b
       0.002074227 0.0019188488 0.0019722795 0.0020062341
000020 62 be 02 3b 52 66 ee 3a 4c 5d fa 3a 09 f0 04 3b
       0.0019949903 0.0018188453 0.0019101291 0.0020284674
000030 8a 20 dd 3a 84 2e 01 3b 18 3a 01 3b e1 61 05 3b
       0.0016870659 0.0019711563 0.0019718464 0.002035253
000040 c5 3a 0b 3b 16 20 f2 3a 64 17 fa 3a 61 b2 fa 3a
       0.0021244746 0.0018472697 0.0019080457 0.0019126647
000050 26 63 03 3b 0f c9 0b 3b e4 1e 06 3b 7a 84 fe 3a
       0.002004811 0.0021329557 0.002046519 0.0019418143
000060 11 35 07 3b 5b aa 07 3b b5 00 f6 3a a0 d5 f1 3a
       0.0020630995 0.0020700905 0.0018768521 0.0018450506
000070 47 c4 0b 3b 84 1b f8 3a e4 80 00 3b ef 05 07 3b
       0.0021326707 0.0018929099 0.0019608075 0.0020602902
000080 c1 5e 02 3b 5d ae fc 3a b8 8a fb 3a 35 1f 0d 3b
       0.0019892904 0.0019278039 0.0019191122 0.0021533493
000090 09 55 11 3b 7d f2 fe 3a 2d 97 fd 3a ff e6 10 3b
       0.002217593 0.0019450929 0.0019347422 0.002211034
0000a0 52 9d ec 3a 06 71 ee 3a 7c ca fe 3a 46 55 ec 3a
       0.0018052256 0.0018191643 0.0019439007 0.0018030785
0000b0 ec b5 0f 3b 74 ce f1 3a 9b 89 e8 3a 20 b1 03 3b
       0.0021928502 0.0018448369 0.0017741205 0.0020094588
0000c0 01 4f 09 3b ba 2a f6 3a 70 38 03 3b 41 42 f5 3a
       0.002095163 0.0018781044 0.0020022653 0.0018711762
0000d0 5d 43 05 3b 65 98 10 3b 78 7b 0a 3b 94 a4 fa 3a
       0.002033434 0.002206349 0.0021130722 0.0019122534
0000e0 ce 87 06 3b 4e 56 f5 3a 5b a8 f8 3a 2c 41 08 3b
       0.0020527723 0.0018717737 0.0018971072 0.0020790799
0000f0 e8 02 02 3b 34 45 08 3b 85 82 00 3b 22 35 e9 3a
       0.0019838158 0.0020793201 0.0019609046 0.0017792324

generator.3.weight f4 [64, 32, 4, 4]
000000 e2 03 b9 bc 9e 7e b0 3c ed 90 cf 3a df c8 cb 3c
       -0.02258486 0.02154475 0.0015836038 0.024876056
000010 84 a4 d5 3c 03 9c c1 3c 69 08 39 bd 3f 92 c0 bc
       0.026079424 0.023633962 -0.045174036 -0.023507236
000020 c0 9c 29 bd c0 ae 90 b9 cb 3a 86 3c 9f 1c cf 3c
       -0.041409254 -0.0002759602 0.016385457 0.025282202
000030 5a be 9e bc 5b c1 08 3a 4a 82 01 3d 72 bd 9d 3c
       -0.019377876 0.00052168005 0.031618394 0.019255374
000040 fa 9b d6 3c 6b a1 49 bc 01 b3 21 bd 5e c9 d3 3b
       0.026197422 -0.012306551 -0.039477352 0.006463214
000050 8b 57 5d 3c 2c 0f 99 3c 60 41 a9 bc 24 94 c7 bc
       0.013509641 0.018683992 -0.020661056 -0.024362631
000060 e6 b6 30 bc 88 f2 b8 3c 4c ab 04 3d 2f 05 01 bd
       -0.010785794 0.022576585 0.032389924 -0.031499084
000070 c3 9a 33 bb ef 4f 78 3c bb a3 a2 3c 72 88 14 3d
       -0.0027405478 0.015155776 0.019853463 0.036262937
000080 c9 d0 c9 3c 50 45 a5 bc 2f 23 09 3d d2 ab b3 3b
       0.02463569 -0.020174652 0.03348082 0.005483129
000090 21 c3 0f 3d 6e 1c 10 bd 36 21 25 bc 7b 4b 25 bd
       0.0350982 -0.035183363 -0.010078719 -0.040355187
0000a0 65 e1 c0 3c c1 43 31 3c eb 4b dd 3c a6 07 ef bb
       0.023544976 0.010819376 0.02701374 -0.007294613
0000b0 db ec dc 3c 4e 82 10 3d bb 50 22 3d 12 c0 84 bc
       0.02696841 0.03528052 0.03962777 -0.016204868
0000c0 5a a3 db 3b 47 59 15 3c 05 24 fb 3c 5a 8f d6 3b
       0.0067028226 0.009115524 0.030656824 0.0065478506
0000d0 20 5e 18 bd 9f 76 27 3d 29 b5 df 3b ae 3d 85 bc
       -0.03719914 0.04088461 0.006827016 -0.016264763
0000e0 23 8d f2 ba cc 07 00 bd 10 45 a8 3c c4 1b 27 3d
       -0.0018505197 -0.031257436 0.020540744 0.040797964
0000f0 84 37 0f 3d e1 0c 86 bb f6 f0 28 bd af 3a 0a bd
       0.034965053 -0.0040908908 -0.041245423 -0.03374737
000100 b7 df 06 bd 21 cf fd bc c3 3e 12 3d 14 5f c2 bc
       -0.032928195 -0.030982556 0.035704385 -0.023726977
000110 1e 66 59 3c cc df 65 bc ee 8f 69 bb 52 1c 2a bd
       0.013268976 -0.014030408 -0.0035638767 -0.041530915
000120 8a d9 72 3c a5 a4 b4 3c 48 bd 09 bd 95 79 76 bb
       0.014822373 0.022051165 -0.03362778 -0.003760909
000130 9f 3b c4 bb 2b 92 ce 3c 81 32 b0 3c 07 95 98 bc
       -0.0059885527 0.025216183 0.021508457 -0.01862575
000140 9d 1d e1 3c 50 a7 10 3c 0c cc bb bc fa 6c e3 bc
       0.027479941 0.008828953 -0.022924446 -0.027761925
000150 bb 28 af 3c a1 30 f9 3c 36 70 26 3d 85 af 98 3c
       0.021381726 0.030418696 0.040634356 0.018638382
000160 62 e1 46 3c 27 e9 20 bd 5c a5 d7 3a 14 66 5a bc
       0.012138696 -0.03928485 0.0016452479 -0.013330001
000170 a5 70 16 3b 65 29 35 3c d0 e3 80 bc b4 f2 06 3b
       0.0022955325 0.0110572325 -0.01573363 0.002059144
000180 3b 8a ea 3c d3 b6 23 3c 83 88 b8 3c f0 ae f2 3c
       0.028630367 0.009992319 0.022526031 0.029624432
000190 2c 26 f5 ba de ea 53 39 0b 72 18 bd 9c 61 ef b9
       -0.0018703393 0.00020210023 -0.037218135 -0.00045658357
0001a0 36 ba b4 bc 45 68 7d 3c 01 22 8e bc 41 07 c6 3c
       -0.022061449 0.015466754 -0.017350199 0.02417338
0001b0 ff 81 ed bc cf 5e 68 3b b8 6a 6a 3c a9 18 09 3b
       -0.028992651 0.00354569 0.01430767 0.002091924
0001c0 8f 17 15 bd 82 95 0a bd 86 ef 2e 3d ba 9b 01 3c
       -0.03639942 -0.033833988 0.042708896 0.007910663
0001d0 db 50 9a bc e4 6f 89 3c f4 ee e5 3c 96 b3 16 3c
       -0.018837383 0.016776986 0.028068043 0.00919809
0001e0 fc d4 45 bc 4d 0b 64 3c 7a fb 25 bd 66 f7 d6 3c
       -0.012074705 0.01391871 -0.04052303 0.026241016
0001f0 28 46 8c bc 23 3e 0a bd 5f de a8 bb 77 71 d0 bc
       -0.017123297 -0.033750664 -0.005153462 -0.02544473
000200 8c dd a1 bc d4 78 c4 bc 6c 69 2b 3c c5 40 13 bc
       -0.019758962 -0.023983397 0.010462146 -0.00898761
000210 37 32 02 3d 9b e6 02 bd e9 54 09 3d d4 87 24 3a
       0.03178617 -0.031958204 0.033528242 0.00062763435
000220 cc 76 02 bc 4e ae 27 3d 78 a0 9c 3c 3d 99 dc bc
       -0.007962894 0.040937714 0.019119486 -0.026928538
000230 19 01 ca 3c b4 ff e7 3c 1f b2 3f 3b 33 55 e5 3c
       0.024658727 0.028320171 0.0029250456 0.027994728
000240 b2 bc a6 3c dd 3b d7 3c 86 23 10 bd 1e 6f 27 bd
       0.020353649 0.026273662 -0.035190128 -0.040877454
000250 f3 86 34 ba 8a a8 a6 3a c7 aa 26 bd e1 06 16 bd
       -0.0006886564 0.0012715023 -0.04069021 -0.036627654
000260 90 67 1a 3d b6 58 18 bd 77 44 aa 3c 7c 28 02 3d
       0.03769642 -0.037193976 0.0207846 0.03177689
000270 69 38 e1 bb ee f7 c0 bc c8 6b 40 bc 59 a8 f5 3c
       -0.0068731797 -0.023555722 -0.011744447 0.029987501
000280 2a 18 c2 3c 03 fd 2e bd 88 b7 19 bd a3 be a0 3c
       0.023693163 -0.04272176 -0.037528545 0.019622153
000290 15 f0 0d bd 8f a7 00 bc 04 03 2c bc c2 1f 10 3d
       -0.03465279 -0.007852449 -0.010498766 0.035186537
0002a0 b1 87 0c bd 41 cf 89 bb 06 7d 0a 3d 8d a2 e9 3c
       -0.034309093 -0.004205615 0.033810638 0.028519893
0002b0 d4 49 39 bd 75 85 15 bd 99 f0 a7 3c 2c 1d 89 bc
       -0.045236424 -0.036504228 0.020500468 -0.016737543
0002c0 27 b8 d8 3c 01 da 42 3c 98 f7 09 3d e3 99 84 bc
       0.026454998 0.0118927965 0.03368339 -0.01618666
0002d0 87 51 ac 3b bf 6f 03 bd f7 ac 2d bd d3 0c a1 bc
       0.0052587423 -0.03208899 -0.04240128 -0.019659435
0002e0 26 4f 32 3d aa be 05 3d e6 93 0a 3d 72 cb ef 3c
       0.043532513 0.032652535 0.033832453 0.029271815
0002f0 63 36 18 bd 6a bd cc 3c 2f 7a 1f 3d b2 d4 1c bc
       -0.037161242 0.024992663 0.038934883 -0.009572195
000300 fd f0 10 bd 9a e8 2f bc 56 59 04 3d cf 23 ae bc
       -0.035386074 -0.010736609 0.03231176 -0.02125731
000310 20 ae 66 bc 7d d4 a9 bc ac ef d5 bc 07 b1 6d bc
       -0.014079601 -0.020731205 -0.026115261 -0.014507539
000320 f3 b3 85 3b 15 cd d4 3c 06 56 37 3b 35 60 15 bd
       0.0040802895 0.025976697 0.0027974858 -0.036468703
000330 ec 6e 05 3d 88 d8 22 3a 96 5b ba bc 00 71 e2 bc
       0.032576486 0.0006212075 -0.02274875 -0.027641773
000340 71 cf e5 3b 12 f4 98 3c e0 6d 0f bd f1 4e ea bc
       0.0070132543 0.01867107 -0.035016894 -0.028602095
000350 a2 00 e2 3c 66 cb a2 3c b5 75 2b bc 69 69 bb bb
       0.027588192 0.019872379 -0.010465075 -0.005719353
000360 70 7f 87 bc 5e 84 0e 3c 6d d0 29 3c 1b 5b 68 3c
       -0.01654026 0.008698551 0.010364634 0.0141818775
000370 b1 f9 91 3c c6 42 2d 3c 3d 99 5c 3c bb 4b b7 bc
       0.017819257 0.010575002 0.013464269 -0.022374978
000380 02 6a 2b 3d bf 72 52 3c cf c7 fc bb 44 8c 83 3b
       0.041849144 0.01284474 -0.0077142487 0.0040145237
000390 c9 12 1d bd 5d 2a 9e bc 27 e8 80 bc 31 2c 94 3c
       -0.038347993 -0.01930731 -0.015735699 0.018087478
0003a0 1a 93 2f 3d ac 28 4c bc 95 9b 27 3d 8b 08 5a 3c
       0.042864896 -0.012460869 0.04091986 0.013307701
0003b0 ad 51 dc bc 85 d0 d7 bc 60 30 bd bb c0 8f 3c ba
       -0.026894415 -0.026344547 -0.005773589 -0.0007193051
0003c0 9b 70 3d bc 8b 15 9d 3c 10 2d 30 3d 32 ad f9 3b
       -0.011562492 0.019175312 0.043011725 0.0076195234
0003d0 a4 64 d4 3c 92 b8 9b 3a af 2e 48 bc 24 99 fc 3c
       0.025926895 0.0011880568 -0.0122181615 0.030834742
0003e0 7a 9c 42 3d cd dc c2 bc 84 bb b1 bc d4 97 07 3d
       0.04751251 -0.023786927 -0.02169586 0.03310378
0003f0 62 af ad 3c 34 9c 19 3d 41 ef 06 3d 6b f6 28 3d
       0.021201793 0.037502483 0.032943014 0.041250627

generator.4.weight f4 [32]
000000 ff f6 80 3f 32 47 80 3f 1f c5 80 3f 66 5d 80 3f
       1.0075377 1.0021727 1.0060157 1.0028503
000010 70 98 80 3f c5 e8 7f 3f 9a 05 80 3f c0 76 7f 3f
       1.004652 0.99964553 1.000171 0.99790573
000020 79 2d 7f 3f cf 44 80 3f ae dc 7f 3f b9 28 7f 3f
       0.9967876 1.0020999 0.99946105 0.9967151
000030 13 d0 7e 3f 0f 4a 7e 3f 03 81 7e 3f 59 f9 7d 3f
       0.99536246 0.99331754 0.99415606 0.992086
000040 37 ba 80 3f b0 40 7f 3f d7 da 7e 3f be 29 7f 3f
       1.0056828 0.9970808 0.99552673 0.9967307
000050 4b 11 80 3f ec 5c 80 3f 51 80 7f 3f 81 5d 7f 3f
       1.0005277 1.0028358 0.9980517 0.9975205
000060 49 ac 80 3f 99 a0 80 3f 62 11 80 3f db 97 80 3f
       1.0052577 1.004901 1.0005305 1.0046343
000070 b8 5f 7f 3f 0d 42 80 3f 92 57 80 3f 01 67 80 3f
       0.9975543 1.0020157 1.0026724 1.0031434

generator.4.bias f4 [32]
000000 17 63 b9 3b 2e 53 b2 3b 4f 15 02 3c a1 c6 e8 3b
       0.0056575644 0.0054420447 0.007939651 0.0071037565
000010 21 d2 97 3b b0 62 de 3b b6 69 a0 3b 8b 41 1f ba
       0.0046332036 0.006786667 0.004895414 -0.00060751353
000020 58 8b 53 bb 5c e0 55 3a 79 47 86 3b 92 86 0e bb
       -0.00322791 0.00081587373 0.0040978757 -0.002174769
000030 9d 09 b1 bb ef 86 b6 bb 77 61 da b9 14 a2 d8 bb
       -0.0054027573 -0.0055702846 -0.00041652817 -0.006611118
000040 1a 07 e3 3b 6b b5 21 3a c3 ae 75 bb a5 57 70 b9
       0.006928337 0.0006168696 -0.00374882 -0.00022920834
000050 bf b6 ea 3b b7 55 ad 3a ff d2 19 bb eb bf 9b 3a
       0.0071628983 0.0013224398 -0.002347171 0.0011882758
000060 b7 5e 9d 3a f3 de f0 3b fb dc 8f 3b 06 e7 07 3c
       0.0012006377 0.0073507964 0.0043903566 0.008294826
000070 3e c1 57 ba b0 a6 dd 3b 28 57 00 3c ee 4e 8b 3b
       -0.00082303945 0.0067642555 0.00783328 0.0042513525

generator.4.running_mean f4 [32]
000000 1b 77 a4 bd b7 84 c9 bd 67 9e a1 bd 92 f4 ee 3b
       -0.0803053 -0.098397665 -0.07891541 0.0072923386
000010 26 75 d7 bc 45 25 5d 3c a2 5d 58 3d bd 8d 83 bd
       -0.026300978 0.013497655 0.05282367 -0.06423519
000020 57 79 95 3d db 01 f1 bd d5 82 8a bc d7 64 15 3c
       0.07298534 -0.11767932 -0.016908089 0.00911828
000030 16 43 08 bc 39 e7 81 3d 0e cf ea bd a3 b9 a9 3c
       -0.008316776 0.0634293 -0.11465274 0.020718401
000040 64 4d 93 3a 7a 31 bf bb 7a 3d af 3d 22 41 07 be
       0.0011238274 -0.0058347555 0.085566476 -0.1320844
000050 d3 82 26 be 05 a0 a6 bd 56 b5 b7 bd 06 82 9c bd
       -0.16260843 -0.0813599 -0.08970134 -0.076419875
000060 c8 78 1b be cb 86 56 3d f1 4b 49 bd 94 63 a1 bd
       -0.15182793 0.052374642 -0.04914469 -0.07880321
000070 f9 31 6e 3d e6 5e 32 bd d1 de 00 bc e0 4e bd bd
       0.058153126 -0.043547533 -0.007865624 -0.0924356

generator.4.running_var f4 [32]
000000 23 51 5e 3d b5 fb 4c 3d 5c 13 86 3d ce de 99 3d
       0.054276597 0.050044734 0.06546661 0.075132
000010 a2 d2 75 3d 72 5c 7f 3d d8 1d a4 3d 6a 65 87 3d
       0.06001533 0.062344022 0.08013505 0.0661114
000020 2d 8b a2 3d b5 ef 77 3d fa 87 55 3d 61 d6 4f 3d
       0.07936702 0.060531337 0.05213163 0.050741557
000030 03 70 64 3d 1b ef 6c 3d 9e 10 9f 3d 21 d4 87 3d
       0.055770885 0.057845216 0.07766841 0.06632257
000040 76 c3 76 3d cd 17 74 3d f8 4b 47 3d 50 ef 6b 3d
       0.060245 0.05959301 0.048656434 0.057601273
000050 8f d4 8f 3d 4a 95 5c 3d 96 15 49 3d aa f3 6c 3d
       0.07022964 0.05385331 0.04909285 0.057849564
000060 38 0c 60 3d f1 c4 7e 3d 85 7c 59 3d a2 46 ad 3d
       0.054699153 0.062199537 0.053097267 0.08460738
000070 a4 0c 65 3d e4 4e 76 3d 8e fd 48 3d 6f 2e a1 3d
       0.05592026 0.06013383 0.049069934 0.07870185

generator.6.weight f4 [32, 16, 4, 4]
000000 77 f7 90 3a 07 0e 46 3d 54 ba 30 bc 2e ed dc bc
       0.0011060078 0.04835322 -0.010786612 -0.026968565
000010 8a dc 49 bd 24 45 43 3d a6 d2 12 bc 64 af 12 bd
       -0.049282588 0.04767336 -0.008961355 -0.035811797
000020 cb 5b 67 3d 19 4e 23 bd 4b 54 5f bc a8 73 c7 3c
       0.056484025 -0.0398694 -0.013630937 0.024347141
000030 b0 7e 54 bd af 6b 1b 3d b3 73 7e 3d cb 0e 38 bd
       -0.05187863 0.037944492 0.062122058 -0.044935983
000040 6b 30 0f 3d 24 8f b1 3b 3c f0 47 3d 90 3f 2f 3b
       0.034958284 0.005418675 0.04881309 0.0026740767
000050 f9 ba c2 3c 8d 76 f5 bb ae 87 80 bc ea 1b 39 bc
       0.023770796 -0.007490939 -0.015689697 -0.011298159
000060 b8 44 f0 bc 11 1b 27 3d b3 ea e0 3c 48 c8 2c 3d
       -0.029329643 0.040797297 0.027455663 0.04218319
000070 a9 fb 59 bd 01 73 3a bd 07 e6 e5 3c 59 19 ca 3c
       -0.053218517 -0.045519833 0.028063787 0.02467029
000080 30 bb 15 bd 57 f6 4b 3d fe 1d 3f 3c c6 5c 4f bd
       -0.03655547 0.049795475 0.011664866 -0.050625585
000090 0b 93 03 bd b5 14 67 bd 3f 5d 6f 3d cc 08 9e bc
       -0.032122653 -0.056416232 0.058438536 -0.019291304
0000a0 bb 83 55 3d 33 3a 60 bd 7b b7 63 bd e3 ac bf 3b
       0.05212758 -0.054743003 -0.055594902 0.005849467
0000b0 e2 b8 d6 bc 73 eb 93 3c dd 25 4f 3d b2 80 be bc
       -0.026211206 0.018056607 0.05057322 -0.023254726
0000c0 0d dc 85 3d 7f 70 9f 3c 81 cf 42 3d 20 e6 30 bc
       0.06536112 0.019462822 0.047561172 -0.010797054
0000d0 be a6 3f 3d 9d ed e9 bc 55 21 05 3d 49 f8 12 3c
       0.046789877 -0.028555686 0.03250249 0.008970329
0000e0 1d 1b 06 3d f9 95 41 bc 04 53 e6 bc 1c 80 9f b9
       0.0327407 -0.011815541 -0.028115757 -0.00030422292
0000f0 bb 90 32 3d f3 65 67 bc 35 b3 fb 3c 1c ae 24 3d
       0.043595057 -0.014123428 0.030725101 0.040205106
000100 b7 9e e6 3c 04 56 55 3d a2 7a 9c bb 07 09 1e bc
       0.028151853 0.052083984 -0.004775361 -0.009645707
000110 57 ac 25 3d 54 d0 2c bd 71 73 40 3d 98 25 73 bd
       0.04044756 -0.042190865 0.046985094 -0.059362024
000120 70 87 33 3a 3f 54 c9 bc 2b 34 5a 3d 37 b6 05 bd
       0.000684849 -0.024576304 0.053272408 -0.032644477
000130 6f f0 de bc d9 90 a9 bb 1b ac 1a 3d ec 0a 48 bd
       -0.027214257 -0.005174738 0.03776179 -0.04883854
000140 3b ad d2 bc 57 6d 07 bd 15 24 fe 3c 67 6d 7b bd
       -0.025717368 -0.03306326 0.031023065 -0.06138363
000150 cd a8 3f 3d 80 a3 9c 3c 80 c8 f5 bc ee c1 a7 bb
       0.04679184 0.019120932 -0.030002832 -0.0051195538
000160 fd f5 84 bd 5c 0f 7f 3d 61 44 34 bd 06 a1 09 bc
       -0.06492231 0.062270507 -0.044010524 -0.008400207
000170 59 a2 35 3d ab 89 e9 bc 62 fb 28 3d 85 77 81 3c
       0.04434428 -0.028508028 0.041255362 0.015804062
000180 db b5 4a bd 42 08 8b 3d a9 25 2e 3d f0 5d 28 bd
       -0.049489837 0.067886844 0.042516384 -0.04110521
000190 75 bd e1 3c 7e c3 95 3c c9 e4 29 3d c9 3c 5c 3d
       0.02755616 0.018281695 0.041477952 0.053768907
0001a0 67 30 13 bd 5c 6d 39 3c 9d 28 49 bd 0c d9 8f 3d
       -0.035934832 0.011317577 -0.049110997 0.0702382
0001b0 ac 1d 3f 3d 84 d6 0e bd 76 c6 01 bd d8 99 31 3d
       0.046659157 -0.034872547 -0.031683408 0.043359607
0001c0 3d 07 d3 bb fd 66 cc bb 66 5f 24 3c b1 0e 32 3d
       -0.006440072 -0.006237863 0.01003251 0.043471042
0001d0 98 f4 84 bd c7 7b 8d bc 58 88 27 bb f6 4e 19 bd
       -0.06491965 -0.017270936 -0.0025563445 -0.03742882
0001e0 67 a8 ca bc f1 14 82 3d 09 2c 33 bd d8 f5 29 3d
       -0.024738504 0.063516505 -0.043743167 0.04149422
0001f0 01 b6 b1 3c 32 4a e0 bc 23 62 09 bd ff 45 82 bc
       0.021693232 -0.02737913 -0.033540856 -0.015902517
000200 ed 51 45 3d 37 3a 53 bd 1e 5d 61 bd 92 aa 8d bd
       0.048173834 -0.05156919 -0.055020444 -0.06917299
000210 48 f0 bb 3c 58 1d c5 bb 01 e6 09 bd 75 5b f0 bc
       0.022941723 -0.006015461 -0.033666614 -0.029340485
000220 60 47 59 3d 39 b6 69 3b 99 d6 21 3d 77 ba 4c 3d
       0.053046584 0.0035661592 0.039511297 0.049982514
000230 8d 90 83 bd e9 95 96 bc 18 ee 02 3d a8 f8 12 bd
       -0.06424055 -0.01838203 0.031965345 -0.03588167
000240 92 2a 7b 3c 33 33 87 bb 6b 46 21 3d 6b 3c 37 3d
       0.015329974 -0.0041259765 0.039373796 0.044735353
000250 5d 21 14 3d 62 32 0c 3d 18 79 67 3d 94 de 2d bc
       0.03616463 0.034227736 0.05651197 -0.010612149
000260 26 a9 6b 3d fa a1 09 bd 77 d8 38 bd 6e 58 95 bc
       0.05753436 -0.03360174 -0.045128312 -0.018230643
000270 19 25 29 3d 76 78 fd bc eb 1f 94 3c 34 15 e9 bb
       0.041295145 -0.03094123 0.018081626 -0.0071131233
000280 09 d3 33 3d 0e a1 1a 3d 21 b3 23 3d a4 fe b1 bc
       0.04390243 0.03775125 0.039965753 -0.021727867
000290 34 4b 0a 3d 49 d4 2f 3d e7 e5 ec bc e1 51 63 3d
       0.033763126 0.04292706 -0.02891822 0.055498008
0002a0 84 f0 1b 3d 05 68 01 bd 7f 22 19 3c ba 8c 70 bc
       0.03807117 -0.03159334 0.009346603 -0.014681989
0002b0 bc 06 5d 3c e6 78 6e 3d 11 10 48 bc f1 d6 22 b9
       0.013490375 0.058220766 -0.012210862 -0.00015529596
0002c0 40 d9 7b bc 5a 06 1d 3d 0a b4 6d 3c e0 95 4a 3b
       -0.015371621 0.038336135 0.014508257 0.0030912086
0002d0 af 09 f8 bb c5 4e 69 bd 68 f8 6a bd ae e5 43 3d
       -0.0075695137 -0.056959886 -0.057365805 0.04782646
0002e0 2c 3e 43 bc c0 49 e2 3c 00 75 28 3a 59 91 3b 3d
       -0.011916678 0.027623057 0.0006426126 0.04579291
0002f0 26 72 42 3d ba da a0 bc a9 e9 aa bc bf c0 57 bd
       0.04747214 -0.019635547 -0.020863371 -0.05267405
000300 35 1c 29 bd e5 4e ce 3c 50 f7 58 bd 88 bf c1 3a
       -0.041286666 0.025184104 -0.05297023 0.0014781812
000310 30 2a 5e bc b0 ca 03 3d 2e 5d fb bc e3 5f e6 3c
       -0.013559863 0.03217572 -0.03068408 0.028121894
000320 6a 89 6f 3d 6d 7b 41 bd 5a e1 3c 3d 2d 6d 03 3d
       0.058480658 -0.04723685 0.04611335 0.03208654
000330 d7 19 2a 3d d1 d9 07 bd a4 7f 3d 3d 44 0f c1 3c
       0.04152855 -0.03316671 0.046264306 0.02356685
000340 a2 a5 3f bd 5a 0b 39 3d 48 f0 19 bd 2d 0e 96 ba
       -0.04678882 0.04517684 -0.037582666 -0.0011448317
000350 b4 d6 6d bd 50 df 6c bd 44 f0 4c 3d d2 5f 74 bd
       -0.058066085 -0.057830155 0.050033823 -0.059661694
000360 3e 45 15 bc cd 8f 30 bd a1 d0 31 bd 5a 16 1b 3c
       -0.009110747 -0.04310589 -0.043411855 0.009465778
000370 ba 07 cd bc 23 e2 7f bd ba 2f 70 3c db 53 2f bd
       -0.025028098 -0.06247152 0.014659816 -0.04280458
000380 32 c8 75 3d 11 53 b6 b8 0c 5f ad 3b c5 a4 9d 3c
       0.060005374 -8.6939086e-05 0.0052908715 0.019243607
000390 94 81 cb 3c 5a db d2 39 65 c3 e8 3c af 50 aa bc
       0.024842061 0.0004021775 0.028413484 -0.020790426
0003a0 e5 4d 2b bd e0 52 3e 3d 9e 26 29 bd 63 e2 89 ba
       -0.041822333 0.046465755 -0.041296594 -0.0010519739
0003b0 a6 17 83 3c 20 40 27 3d 86 04 e7 bc dd af 08 bd
       0.016002487 0.04083264 -0.0282004 -0.03337084
0003c0 d0 31 13 3d 18 47 aa bb 96 20 21 bd 64 d3 55 bd
       0.035936177 -0.0051964633 -0.039337717 -0.05220355
0003d0 a9 fc 65 bd 47 26 08 bd 33 de 61 bd db 46 74 bd
       -0.05614916 -0.03323963 -0.055143546 -0.059637886
0003e0 c5 c3 43 bd bd 93 76 bd 27 97 19 3c bb 5d 83 3b
       -0.047794122 -0.060199488 0.009374416 0.0040089763
0003f0 3e 6f 07 bd d0 78 4a bd ae f2 62 3d 46 a2 3b 39
       -0.033065073 -0.049431622 0.05540722 0.00017894161

generator.7.weight f4 [16]
000000 21 fe 80 3f 52 fc 7c 3f 8f ce 7d 3f dd 86 7c 3f
       1.0077554 0.9882251 0.9914331 0.98643285
000010 19 b2 7c 3f 91 6e 81 3f df 65 80 3f da 90 81 3f
       0.98709255 1.0111867 1.0031089 1.012233
000020 03 b3 81 3f 36 7c 7d 3f c7 ef 7c 3f 4a b9 81 3f
       1.0132755 0.99017656 0.9880337 1.0134671
000030 f5 75 81 3f ac 6c 7e 3f 77 a5 7c 3f ae 6a 7e 3f
       1.0114123 0.9938457 0.9868998 0.9938153

generator.7.bias f4 [16]
000000 83 29 e2 3b 2c 54 26 bc 21 25 0e bc 80 3b 48 bc
       0.0069019212 -0.010151904 -0.008675844 -0.012221217
000010 87 be 40 bc 85 af 41 3c 98 a3 7f 3a 35 15 44 3c
       -0.011764175 0.011821632 0.00097518554 0.011967947
000020 c6 d0 4d 3c 39 71 3b bc 09 20 27 bc d7 bd 49 3c
       0.0125619825 -0.011440569 -0.010200509 0.012313328
000030 50 5d 35 3c ad 15 c3 bb d7 0e 45 bc 02 d6 dc bb
       0.011069611 -0.0059535117 -0.012027464 -0.006739379

generator.7.running_mean f4 [16]
000000 aa e9 03 3e 83 2f 38 be 00 ea 20 3e 95 1b f5 ba
       0.12882105 -0.17986874 0.15714264 -0.0018700237
000010 f2 c5 e9 bd e4 27 13 bd ec e9 c3 3b 3b 78 09 3c
       -0.11414708 -0.035926715 0.0059788134 0.008390482
000020 19 64 9c 3d 5a 19 a0 3c 58 f9 6a bc e9 e8 58 3d
       0.076362796 0.019543339 -0.014341675 0.052956495
000030 be d0 80 3d bd a3 5b be 2b 8c 46 3d f7 9a 0f be
       0.062898144 -0.2144918 0.04847352 -0.14023958

generator.7.running_var f4 [16]
000000 32 7d bd 3d d9 b1 78 3d f2 1c eb 3d b7 6e a5 3d
       0.09252395 0.060716484 0.1148013 0.08077758
000010 3d ae 8f 3d f8 c5 6f 3d 3c 8b 80 3d 68 dc 5f 3d
       0.07015655 0.058538407 0.06276557 0.054653555
000020 fa 3a b6 3d ea 0d 45 3d c4 ab 69 3d a0 e1 7f 3d
       0.08897968 0.048108973 0.057048574 0.062471032
000030 f9 93 84 3d 03 85 92 3d de 59 5a 3d e3 72 82 3d
       0.06473536 0.07154276 0.05330836 0.06369569

generator.9.weight f4 [16, 1, 3, 3]
000000 a1 25 95 be 92 ef 95 bd d8 bd 57 3e c6 ef 63 3e
       -0.2913027 -0.07321085 0.21068513 0.22259435
000010 50 b1 2a be 05 ce 9d be 41 1f 86 3e a9 a2 8f 3e
       -0.16669202 -0.30821243 0.2619572 0.28053787
000020 6c e6 8d bd 74 84 3e bd 11 c4 d0 bd ee 58 f7 bd
       -0.06928715 -0.046513036 -0.10193647 -0.12077509
000030 da 4d 0f be 48 72 e9 bd ef 38 ce 3d 9b 69 41 be
       -0.13994542 -0.113987505 0.10069453 -0.18887942
000040 ed 96 b9 bd cd f7 30 bc f1 84 8c bd 47 3d fd bc
       -0.0906199 -0.010801268 -0.06861294 -0.030913008
000050 56 db 44 3e 70 19 a1 3e 1b a9 f0 3d dd d4 9b be
       0.19224295 0.3146472 0.11751004 -0.3043584
000060 c5 31 14 3e 46 55 75 be 9c 95 8b be 4e 03 57 be
       0.1447211 -0.2395831 -0.2726258 -0.20997354
000070 44 2e 42 be 80 f7 89 3e 14 1a 90 3d 2b 59 4e be
       -0.18962961 0.2694664 0.07036224 -0.20151202
000080 5d dd 3b be 35 b0 4a be 49 21 06 be e2 7f c2 bd
       -0.18346162 -0.1979378 -0.13098635 -0.09497048
000090 45 2e 05 be 1a be 27 be 9b 2c 83 be a8 03 4c 3d
       -0.13005932 -0.16381112 -0.2561997 0.049808174
0000a0 84 10 49 be ab 8e 15 3e d0 69 e1 3d 59 64 9d be
       -0.19635206 0.14605205 0.1100651 -0.30740622
0000b0 fe c7 98 be ae 32 5b 3e 99 fc 2e be 18 85 26 3e
       -0.29840082 0.21406052 -0.17088546 0.16261709
0000c0 f5 63 71 be 60 4d a4 3e 0c f2 95 3e 75 b4 65 bb
       -0.23573287 0.32090282 0.2928623 -0.0035050188
0000d0 95 d6 c6 bd 5e 48 9a be b6 80 6e be 71 a5 4f be
       -0.09708897 -0.30133337 -0.23291287 -0.20277955
0000e0 e1 f4 06 be 82 12 a7 3d b2 22 06 be 5e f2 6c 3e
       -0.13179351 0.08157827 -0.13099173 0.2313933
0000f0 96 42 b8 3d c5 ef 82 3e d3 55 29 bb bf a7 2f 3e
       0.08997075 0.25573555 -0.0025838509 0.17153834
000100 4a 90 6d 3e 31 7e 9f be aa cb f5 3c a8 34 0a 3e
       0.23199573 -0.31150964 0.030004341 0.1349665
000110 b9 06 a1 3e d6 19 89 be 46 53 33 3e 42 2c 5e 3e
       0.3145044 -0.26777524 0.17512235 0.2169657
000120 a6 40 69 3e 03 af ae 3e 15 6c 86 3e f6 fb 33 3e
       0.22778568 0.34117898 0.26254335 0.17576584
000130 83 83 ae 3e aa 9a 91 bc e0 ad 80 3e 14 c7 9b 3e
       0.3408471 -0.017773945 0.25132656 0.30425322
000140 8b 09 ea bd e3 d1 a3 3e 75 b0 01 3e ee 14 45 be
       -0.114276014 0.31996068 0.1266497 -0.19246265
000150 ff be 9f be 1b 2b e3 bc ba d4 d8 bd f9 4c 33 be
       -0.31200406 -0.027730515 -0.10587449 -0.17509831
000160 76 00 1a 3e 1a 4d 13 3d 2b bb e0 bd 6a eb a5 3e
       0.15039238 0.0359622 -0.109731995 0.3240617
000170 9c 6c 2a be 61 e0 fc 3c 65 48 e0 bd 18 03 86 be
       -0.16642994 0.030868711 -0.10951308 -0.26174235
000180 a5 6b 29 be 5f ff b3 3d 9d a7 1b be a5 20 18 3e
       -0.1654497 0.087889425 -0.15200658 0.14856203
000190 2a 08 81 3e 78 1a 8a bd d6 c3 5c 3e c4 3a a7 3e
       0.2520154 -0.0674333 0.2155908 0.32662022
0001a0 d2 71 34 be 1d da 42 be c2 34 85 3d 5b 79 60 3e
       -0.17621544 -0.19028516 0.065042034 0.21921293
0001b0 64 fa 9b be 58 16 77 3e 8a ce a0 3e d4 ab dc 3d
       -0.3046447 0.24129617 0.31407577 0.10774961
0001c0 bd bb 5f bd 1a ba d6 bd 36 69 44 be 82 c7 9c bd
       -0.0546224 -0.10484715 -0.1918076 -0.076552406
0001d0 51 ab 8b 3e 25 54 98 be f7 d5 70 be bd 0c 78 be
       0.27279142 -0.29751697 -0.23519121 -0.2422361
0001e0 d9 d0 65 be c0 68 80 3e 82 9f ff 3d c4 f9 f3 3d
       -0.2244295 0.25079918 0.124815956 0.119128734
0001f0 d6 c9 7f 3e 1d 75 18 be 92 2d aa 3e b6 57 91 be
       0.24979338 -0.14888425 0.33237892 -0.2838723
000200 1e ce 9b 3d 64 95 38 bd 23 10 5c be 11 1b 51 be
       0.07607673 -0.045064345 -0.2149053 -0.20420481
000210 65 31 b3 3a e8 e5 93 be e7 f4 64 be 86 1a 76 3e
       0.0013671337 -0.28886342 -0.22359048 0.24033555
000220 3d 4e 89 be 20 b9 91 3d 8c 26 76 3d 90 3e 38 bc
       -0.26817504 0.07115388 0.060095355 -0.011245385
000230 43 99 61 be 90 42 9e 3e c9 c6 70 bd 46 7c 9b be
       -0.22031121 0.30910158 -0.058783326 -0.3036825
