models/novelty_gan_MNIST_replay_True_best_discriminator.model (torch, 54736 bytes, 21 tensors)

discriminator.0.weight f4 [4, 1, 3, 3]
000000 fd 2d 83 3d 4e 13 43 3e 37 b1 b0 be b6 63 45 be
       0.06405256 0.19050333 -0.34510204 -0.19276318
000010 67 44 87 3e f8 ae ab 3d 54 73 55 3d 1e 52 6f be
       0.26419374 0.08382982 0.05211194 -0.23371169
000020 05 f4 16 be 8f 52 73 be 19 77 27 3e a7 b8 17 be
       -0.14741524 -0.23761962 0.16354026 -0.14816533
000030 88 e0 63 3d c0 f1 07 3e 45 9d 47 3e 27 b9 8d be
       0.05563405 0.13275814 0.19493587 -0.27680323
000040 cc e2 35 be 1f 33 a7 3d 4a 39 1a 3e 2c 48 38 3d
       -0.17762297 0.081640474 0.15060917 0.044990703
000050 17 b4 85 be 6c 0f d1 bc 6c cd 98 be d8 e5 7a be
       -0.2611396 -0.025520049 -0.29844224 -0.24501741
000060 c2 c9 a2 3e 41 2a 8b 3e 27 96 f2 3d 8a 13 a1 3e
       0.31794554 0.27180675 0.118450455 0.3146022
000070 02 f0 56 3e 59 13 0b 3d c5 9d 64 3e 5e 91 80 3e
       0.20989993 0.033954 0.2232581 0.25110906
000080 46 a2 9d 3d 15 33 92 be 33 44 dc 3d c3 19 37 3e
       0.07696967 -0.28554597 0.107551955 0.17880921

discriminator.1.weight f4 [4]
000000 ee e2 80 3f 65 1e 7f 3f 6f 84 81 3f 63 d2 7d 3f
       1.0069253 0.99655753 1.011854 0.9914915

discriminator.1.bias f4 [4]
000000 03 35 24 3c a6 9d 1e bc 38 83 5b 3c 7b fb 1c 3c
       0.010022405 -0.009681141 0.013397984 0.009581442

discriminator.1.running_mean f4 [4]
000000 de 8d 1d b9 5a 69 fc b8 b1 b4 2f 38 dc 83 25 3a
       -0.00015025536 -0.0001203592 4.1891533e-05 0.0006313899

discriminator.1.running_var f4 [4]
000000 81 1a 92 3d 88 38 9f 3d 84 5e 36 3e c6 53 35 3f
       0.071339615 0.07774454 0.17809492 0.70830953

discriminator.3.weight f4 [8, 4, 4, 4]
000000 95 04 cd 3b 4c d3 88 bd c3 f7 2f bd c2 82 96 3d
       0.0062566497 -0.06680927 -0.042960893 0.07349159
000010 fa c5 8d 3a d5 c0 a0 3d 15 56 8d 3d 2e f1 ab 3d
       0.0010816448 0.0784928 0.069011845 0.08395611
000020 c6 7b d1 3d 42 f2 dc bd 47 b1 1c bc f2 53 f7 bd
       0.10228686 -0.107883945 -0.009563751 -0.12076558
000030 1c 8f e8 bd e1 55 f2 3d 7c aa ea bd f5 d2 4b bd
       -0.11355421 0.11832786 -0.114582986 -0.04976173
000040 f3 fb 4c bc de cd 63 bd 38 3b d4 3d bc a6 06 bd
       -0.012511241 -0.055616252 0.103628576 -0.032873854
000050 e5 60 fa 3d 14 22 f3 3d 38 7f 0d bd 2f 42 c6 3d
       0.122255124 0.11871734 -0.034545153 0.09680592
000060 30 85 43 3d 72 0e b3 bd cc 6c 8c 3d 84 04 6e 3c
       0.04773444 -0.087429896 0.06856689 0.014527444
000070 f8 59 11 3d be 83 9a bc f4 d9 16 bd c6 dc f2 bc
       0.03548619 -0.018861648 -0.03682895 -0.029646289
000080 66 e6 a3 bd 1d 3c de bd 01 bc c8 bd e6 1d cb 3d
       -0.080029294 -0.108513094 -0.09801484 0.09917812
000090 97 41 a4 bb 30 85 c5 3d 4a 06 5e bc d8 82 1e 3d
       -0.0050127017 0.09644544 -0.013551304 0.038699
0000a0 63 43 95 3d 64 f4 f1 3d 5b ea dc 3d ce 6a 42 3c
       0.072882436 0.11814192 0.10786887 0.0118662845
0000b0 0d 67 00 be 12 88 96 bd 78 bd eb bd 3d 4f dd bd
       -0.12539311 -0.07350172 -0.11510748 -0.10806129
0000c0 76 2b b5 3d 8f 40 eb bd 83 49 68 bc f5 a1 9c 3d
       0.0884618 -0.11486923 -0.014177683 0.07648078
0000d0 5b 36 ad 3b ce d3 25 bd 57 91 c0 bd f0 0d cf 3d
       0.0052860207 -0.040485196 -0.094027214 0.1011008
0000e0 f7 03 0c bd 81 6f 5f bd eb cb b1 3d 2e 37 03 3d
       -0.03418347 -0.054549698 0.086814724 0.032035045
0000f0 6d e7 d5 3d a3 cc 5d bd 26 ae de bd a2 ac d6 3d
       0.104445316 -0.054150235 -0.1087306 0.10482146
000100 17 f9 a2 3d 8f 64 79 bd 89 1f 0f 3d 7c dd 84 3c
       0.07957666 -0.060886916 0.034942184 0.016218893
000110 41 0e 04 3c 47 45 4e bc 29 1f a7 3d ed d5 ef bc
       0.008060039 -0.012589759 0.0816024 -0.029276812
000120 5a 38 b1 bd fa 6c 99 3d 75 ef 97 3c 2d 1f 3a 3d
       -0.08653326 0.07491489 0.0185468 0.045439888
000130 4c 06 12 3e a0 cd dd bd 02 33 63 bd 86 c6 b9 3b
       0.14260215 -0.108302355 -0.055468567 0.005669418
000140 16 d1 7f 3c 80 87 82 bb 1f 2d d9 3c 0a 72 92 bc
       0.015613815 -0.003983438 0.026510773 -0.017876644
000150 c0 10 53 bd cf 4e 4b bd 06 93 51 3d 7a 73 8e 3d
       -0.051529646 -0.049635705 0.051165603 0.06955619
000160 69 80 a9 bd e9 cf d2 bd 8e 62 3b 3d 9c 9f a1 bc
       -0.082764454 -0.10293562 0.045748286 -0.019729428
000170 64 21 19 bd 77 91 09 bd 98 fc f7 3c 84 d5 83 bc
       -0.03738536 -0.03358599 0.030271813 -0.016093023
000180 3a 5a 94 bc af d0 df 3d 2e 5f 21 3d 1b 09 bf bc
       -0.01810943 0.10928475 0.03939741 -0.023319772
000190 9a b3 09 be 70 df 10 bd b6 67 8b 3c 6f 9c 6e 3d
       -0.13447419 -0.035369337 0.017017227 0.058254655
0001a0 75 a7 17 bc 54 d5 28 bd fb e3 db bd 73 a6 92 bd
       -0.009256233 -0.04121907 -0.10736843 -0.07160654
0001b0 53 85 f0 3b 73 e6 1e 3d 95 13 26 bd e2 33 ed bc
       0.0073401122 0.038793992 -0.04054602 -0.028955404
0001c0 ec 5d 95 3c 2b 81 06 bd 94 7f 6e bd ea d3 05 3d
       0.018233262 -0.032838028 -0.058227137 0.0326728
0001d0 16 fc c1 bd dd 16 b2 bd 7f 4d e0 3d f8 52 2d bd
       -0.0947191 -0.08695767 0.10952281 -0.042315453
0001e0 98 55 4b 3d 03 99 97 bd 19 85 ec 3c cc 5f e5 3d
       0.049642175 -0.074022315 0.02887206 0.111999124
0001f0 d9 41 81 bd a7 e2 40 bd a9 a7 5c 3b 61 8d 81 3d
       -0.063113876 -0.047091153 0.003366927 0.06325794
000200 2e 1a bf 3c 43 4b 35 bd ef c7 e5 3d c7 21 a0 3d
       0.023327913 -0.04426123 0.11219775 0.078189425
000210 5b 1d bd 3c 18 5b 9b 3d 8c 37 e4 3c 0a d4 c5 bc
       0.023085287 0.07585734 0.027858518 -0.02414896
000220 48 97 b4 3a 84 a6 97 3d 5b 76 8e 3c 9d 35 8d 3d
       0.0013777995 0.07404807 0.01739042 0.068949915
000230 84 a8 82 3d 87 09 46 bd d0 96 60 bd 5a a1 87 3d
       0.06379798 -0.04834893 -0.054831326 0.06622572
000240 73 28 a6 bd fc a9 88 bd 31 61 2b 3d ee 8b 6f bd
       -0.08113184 -0.06673047 0.041840736 -0.058483057
000250 e8 03 99 bd 6e 55 74 3d c5 de 75 bd df 66 f4 3d
       -0.07471448 0.059651785 -0.060026903 0.119336836
000260 33 d3 4d 3d 71 1e c6 bc 85 97 6f 3d b8 04 b9 3d
       0.050250243 -0.024184437 0.05849411 0.09034103
000270 63 14 b8 3c 89 06 b8 bc 4a a0 d1 3c 8f d3 69 3a
       0.022470659 -0.022464054 0.025589127 0.00089197693
000280 c9 4d a1 bd 79 28 f3 bb 4b 89 c0 3c b4 13 89 3d
       -0.078761645 -0.007420596 0.023502966 0.06693211
000290 02 0d 53 bb f1 10 b4 bd 36 78 99 bd eb 00 19 bd
       -0.0032203798 -0.08792294 -0.074936315 -0.03735439
0002a0 97 70 de bd d9 28 bb 3d 2f 15 24 bc fc 8b 5c bb
       -0.108613186 0.091386504 -0.010014816 -0.0033652773
0002b0 81 83 1f bd a6 60 5e bd 97 bf e4 bd dc f7 8e 3d
       -0.03894377 -0.05429139 -0.11169355 0.06980869
0002c0 46 2d 59 bd 9a cc a2 bd 2d 52 e9 bd 1e 3f c5 3d
       -0.05302169 -0.07949181 -0.11392627 0.09631179
0002d0 04 75 8a 3b ee a3 e2 3d c7 05 4e bd 57 b4 db 3c
       0.004225375 0.11066423 -0.05029848 0.026819391
0002e0 d3 26 dd bd 05 94 74 3c 0c 26 87 3d fa f2 6e 3d
       -0.10798421 0.014927869 0.06599054 0.05833719
0002f0 df 4b 1d bd f5 41 87 bd 43 6d 78 bd 44 5e e0 bd
       -0.038402434 -0.06604377 -0.060651075 -0.1095548
000300 f4 7a ae bd 2a 19 59 bd dd 54 c1 bd 46 cf 82 bc
       -0.08519545 -0.053002514 -0.094400145 -0.015967976
000310 67 c7 a1 3d 85 5b 88 bd 27 54 b8 3d b5 6d ca 3d
       0.07899361 -0.06658081 0.09000426 0.09884206
000320 3e 5b ad bc d0 04 e8 bd c5 a3 96 3d a2 43 c9 39
       -0.021161672 -0.11329043 0.07355455 0.00038388098
000330 c5 67 bd 3d 55 d1 82 3d bc a1 3c bc 5f 37 45 3d
       0.09248308 0.06387583 -0.01151317 0.04814851
000340 43 65 04 be 3b 01 c7 bd ac 03 bd bd f2 25 9e bd
       -0.12929253 -0.097170316 -0.09229216 -0.07722081
000350 15 ec 3b bc 73 45 37 bb 93 80 a8 3d 57 e9 8f bc
       -0.011469861 -0.002796498 0.082276486 -0.01756732
000360 ff 4a 9e 3d be e3 8e bd 57 fa d1 bc 28 ee 0c 3c
       0.07729148 -0.06977032 -0.025632067 0.008601703
000370 ca 9e b7 3c 71 fc 9b bd db b8 9d 3d 83 27 a6 3c
       0.022414584 -0.07616509 0.07701274 0.020282513
000380 72 7e bd 3b 4b 79 91 3d 29 78 ce 3d 37 b1 96 bd
       0.0057828957 0.07103213 0.100815125 -0.0735802
000390 17 e0 76 bd b8 b1 8e bd 0b 7c bf bd e2 3b cf bc
       -0.060272302 -0.06967491 -0.09349831 -0.025297109
0003a0 2a 4d 03 3d dc 52 ae 3d 91 9d d7 3d 79 a6 0f 3c
       0.03205601 0.08511898 0.105281 0.0087677175
0003b0 31 79 0f 3c 66 52 2b 3d 28 79 b1 bd 69 ea ab bd
       0.008756922 0.04182663 -0.08665687 -0.083943196
0003c0 ff 81 67 bc aa 11 65 3c ac 67 64 bd d2 06 fd 3d
       -0.014130115 0.013981262 -0.05576293 0.123548165
0003d0 21 75 09 3d f9 32 fb 3c 83 6e 9d 3c 31 7e 92 3a
       0.03355897 0.030663954 0.019217735 0.0011176524
0003e0 02 20 84 3d 75 f1 a5 3d 34 95 cc 3b 1f f3 cc bc
       0.064514175 0.08102695 0.0062433723 -0.025018273
0003f0 9f 86 81 3d 6f c5 9a bc e4 85 2b bd 68 2e 2d bb
       0.06324505 -0.018892972 -0.041875735 -0.0026425365

discriminator.4.weight f4 [8]
000000 cc fb 7c 3f 34 32 81 3f d3 88 81 3f f8 54 7e 3f
       0.9882171 1.0093446 1.011988 0.993484
000010 2a 6d 7e 3f c0 27 81 3f 21 64 7f 3f 5f 8d 7f 3f
       0.9938532 1.0090256 0.9976216 0.9982509

discriminator.4.bias f4 [8]
000000 64 ad 20 bc fc bd 28 3c d6 0b 4e 3c cd 53 38 b8
       -0.009806965 0.010299202 0.012576064 -4.3947064e-05
000010 54 cd 43 bb b8 3e 51 3c 45 22 80 3b b4 b0 57 3c
       -0.0029877024 0.012771301 0.0039103352 0.013164688

discriminator.4.running_mean f4 [8]
000000 1d 1c 00 3d a2 3b 91 bd 22 1c 66 bc 2c c5 a3 3c
       0.03127681 -0.07091452 -0.014044793 0.01999148
000010 87 55 b0 3c ed 3f 9d bd 29 14 f9 bd 0a 05 22 3e
       0.021525158 -0.076782085 -0.12162048 0.15822235

discriminator.4.running_var f4 [8]
000000 54 53 f1 3d bf 68 eb 3d 62 2f 4a 3e e0 d4 11 3e
       0.11783472 0.11494588 0.19744638 0.14241362
000010 88 e7 da 3d 19 b3 38 3e c7 79 7b 3e 6e ae ad 3d
       0.10688692 0.1803707 0.24558173 0.084805354

discriminator.6.weight f4 [16, 8, 4, 4]
000000 2b 35 7b bd cb 29 92 3d 33 a7 4f 3d 23 44 8b bb
       -0.06133 0.071368776 0.050696563 -0.004250066
000010 61 79 59 bd 36 1d e6 3c 46 28 fd bb b8 56 9d 3d
       -0.05309427 0.0280901 -0.0077257482 0.07682556
000020 d0 b0 d0 3c b7 7b 7e 3d 3c e5 30 bd 82 87 20 bd
       0.025474936 0.062129702 -0.043187365 -0.03919173
000030 d9 17 75 bd 84 fd 52 3d 50 8c 2b 3d 4a f6 dd 3c
       -0.059837196 0.051511303 0.04188186 0.027094979
000040 92 f2 48 3a 28 80 20 bd c2 56 f2 3c 3a ed 13 3d
       0.00076655403 -0.03918472 0.029582385 0.03611491
000050 b9 d9 ef bc d1 63 89 3d 5e df 4d 3c 75 5e f5 bc
       -0.029278623 0.067084916 0.012565462 -0.029952267
000060 a0 2d 8a 3d cf 13 0a bd 22 0d d9 bc 30 67 91 3d
       0.067469835 -0.033710297 -0.02649552 0.070997596
000070 fd c8 2c bd e6 c7 c0 bc fb 6f b0 3d 9d 1d 81 3d
       -0.042183865 -0.023532819 0.086151086 0.063044764
000080 a5 a6 c0 bc b4 62 d3 3c 39 e7 43 3d 4a 43 53 3d
       -0.023516962 0.025803901 0.047827933 0.051577844
000090 ad 70 93 3d 87 03 9b 3d 9c 0d 37 3d 1c 02 9b 3c
       0.071992256 0.07569032 0.044690713 0.018921904
0000a0 01 ad 03 3c 04 84 82 3b e6 88 a3 3c c7 6c af 3d
       0.008036853 0.0039830226 0.01996274 0.085656695
0000b0 3d 1c 97 3d 3e e3 c4 bd 2f 22 44 3d 46 44 39 bd
       0.07378433 -0.096136555 0.047884163 -0.045231126
0000c0 16 b8 94 3b d7 1e 88 3d c6 b6 2c bd 57 28 d9 bc
       0.0045385463 0.06646507 -0.042166494 -0.026508493
0000d0 00 d9 12 3d 4c 74 86 bd d4 13 b1 bd 6c 69 d7 3c
       0.03585148 -0.065651506 -0.0864636 0.026295386
0000e0 7e 00 4d 3d 90 7e 4c 3d fa 46 f3 bb 63 b1 92 3d
       0.050049298 0.049925387 -0.0074242325 0.0716274
0000f0 a3 24 f0 bc d4 75 7b 3d 8c 18 1c bc 77 ae 47 3d
       -0.029314345 0.061391667 -0.009527337 0.048750367
000100 92 15 f6 bc 5c 8f 93 bd 58 82 8e 3c 12 87 51 bd
       -0.030039582 -0.07205078 0.017396137 -0.051154204
000110 d7 36 38 3c f5 d5 28 bd 70 bc a7 bd f2 61 f8 bc
       0.011243544 -0.04121967 -0.081902385 -0.030320141
000120 30 00 ca 3c 12 22 93 3b f9 28 0f bb 88 d3 64 3c
       0.024658293 0.0044901455 -0.002184449 0.013966449
000130 86 90 a6 bd 97 a4 71 bd af 11 b9 3d 39 fa 28 3d
       -0.081330344 -0.058994856 0.09036576 0.041254256
000140 92 40 ea bc 99 a0 1e 3d 1f 7f 4a 3d 70 0a 4a bd
       -0.028595243 0.038727377 0.04943764 -0.04932636
000150 ab 70 b3 bc 76 ed 6a bd 5c 74 9c 3b 0c 17 62 bd
       -0.02190431 -0.057355367 0.0047746133 -0.05519776
000160 ea 16 9c bd 72 a6 25 3d f2 ad 88 bd 11 04 d2 bc
       -0.07621558 0.040441938 -0.066738024 -0.025636705
000170 88 aa 31 3d 98 14 3f 3d 9f 7a ad 3d a8 dc 37 bd
       0.043375522 0.0466505 0.08470654 -0.04488817
000180 53 f5 9e 3d c2 78 45 3d 62 ac 99 3d 3b 9b ab bc
       0.07761636 0.048210867 0.075035825 -0.020948043
000190 93 9e ac bd 09 f0 6f bd 10 92 b7 3d 6d e8 95 bd
       -0.08428683 -0.058578525 0.08963406 -0.07319722
0001a0 19 e1 cd 3d 8d 01 85 bc 11 42 ae 3d 8a da 63 bc
       0.100526996 -0.016236091 0.08508695 -0.013907084
0001b0 59 56 38 3d d1 23 2d bd a8 41 2f 3c 40 cb 2f bd
       0.045004223 -0.042270485 0.010696806 -0.042918444
0001c0 13 17 4d bc b2 ac 46 bd 8b 94 43 bd d6 00 82 3c
       -0.012517708 -0.04850454 -0.047749083 0.01586954
0001d0 9c 1a 67 3d d4 f4 ae bc 27 18 86 bd 61 5c 4f bd
       0.05642186 -0.021356978 -0.065475754 -0.05062521
0001e0 c0 8c e7 3b be b1 aa 3d ba b3 44 bd 19 e3 90 bd
       0.0070663393 0.08334683 -0.048022963 -0.070745654
0001f0 f8 fc 9e bd 57 84 f8 3c 1c 8d a1 bd 88 c6 cb 3c
       -0.07763094 0.030336542 -0.078882426 0.02487494
000200 cf 6a 9f bd 5e 3a 89 3d 6a 71 91 3d e6 ae 58 3c
       -0.07784044 0.06700586 0.0710171 0.013225293
000210 42 b5 4f 3d 74 4c 98 bd f6 c4 57 bd a9 bd 5f bd
       0.05070997 -0.07436457 -0.05267807 -0.054624233
000220 af 9c d0 bc ef 66 2b bd 19 2c f9 bb 7e 4a ab 3d
       -0.025465338 -0.041846212 -0.007604134 0.08363818
000230 2d 56 64 3c dd da 04 3d 7f f5 9c bd d2 29 8f bd
       0.0139365615 0.032435287 -0.07664012 -0.069903985
000240 91 98 9d bd 6c 04 67 3d 56 1e ea bc bf 5c 91 3c
       -0.07695115 0.0564007 -0.028578918 0.01774442
000250 56 00 5c bd 85 9e bf bd 40 42 55 bb e4 d5 06 bd
       -0.053711258 -0.09356407 -0.0032540709 -0.032918826
000260 ac a6 55 bd e0 85 bf bd e0 34 94 3d 21 0d c4 3c
       -0.052160904 -0.093517065 0.072366476 0.023932042
000270 06 db 0f 3d 07 79 a5 bd 97 36 4d bd 5d 9c c5 bd
       0.035120986 -0.08079725 -0.05010089 -0.096489646
000280 24 c8 4d bc 74 87 4f bc bc 43 b5 3d fa 49 ba 3d
       -0.012559924 -0.012666572 0.0885081 0.09096141
000290 ad 9e 88 bc da 20 02 bd a2 57 11 3d 44 b4 0d 3d
       -0.016677225 -0.03176961 0.035483964 0.034595743
0002a0 f2 2f be 3d de 31 72 bd fe e3 55 3d 3b e3 8f 3d
       0.092864886 -0.05912959 0.052219383 0.07025763
0002b0 c5 fb 9b 3d 13 d1 bc bd 4f 9d 8a bd 25 1b 55 bd
       0.076163806 -0.09219565 -0.067682855 -0.05202784
0002c0 3b ff 77 3d f5 51 64 3d fc cf e1 bc 07 8a e9 3c
       0.06054614 0.055742223 -0.027564995 0.0285082
0002d0 7c 1a 35 bd 48 ae 02 3d 4f f9 70 bd e3 b7 a0 3d
       -0.04421471 0.03190449 -0.05883151 0.078475736
0002e0 33 94 1a bd 51 38 d8 3c 01 1c b6 bc 67 db 75 bd
       -0.03773899 0.026394041 -0.02223015 -0.06002369
0002f0 22 23 70 3d 01 63 a3 3d ee bf 92 bd 1c 87 5f 3d
       0.058627255 0.07977868 -0.07165514 0.05457221
000300 73 6c 82 bd a7 f4 7d bd b3 9f 86 bc fd 84 8a 3d
       -0.06368341 -0.062000897 -0.016433572 0.06763647
000310 b2 54 9f 3d ff 11 3f 3d a0 0f 0a bc 42 4d e4 3c
       0.07779826 0.04664802 -0.008426577 0.02786887
000320 9b de f9 bc cd 0a a4 bd 2c c1 9e bc 78 1f 16 bd
       -0.030501654 -0.080098726 -0.01937922 -0.036651105
000330 d9 eb ad bc 99 69 7c bc 5c ed e0 bc 72 75 81 bd
       -0.021230625 -0.015406036 -0.027456932 -0.06321229
000340 a9 15 e8 bb 6f 42 98 bd 75 90 8e 3c c4 d7 35 3d
       -0.00708266 -0.07434546 0.017402867 0.044395223
000350 b8 bf 38 bd 96 fe e7 3c 6e 1d 8a 3d b6 1d 91 bd
       -0.045104712 0.028319638 0.067438945 -0.07085745
000360 76 83 0b 3b 3d fa f2 bc a4 6f fe 3c 8d 3a 98 bd
       0.0021288074 -0.029660339 0.031059094 -0.07433043
000370 c6 73 ed 3c d6 a7 70 3d 8e 35 a9 bd 0d 6b c1 3d
       0.02898587 0.05875381 -0.08262168 0.094442464
000380 0e 64 f0 3b a4 19 70 bd d8 f4 9d bc bb 7f 4c bb
       0.007336146 -0.058618203 -0.01928179 -0.0031204063
000390 0f 76 e7 3c 1c 1c 81 bd 34 d6 6b bb 93 e9 80 3d
       0.028254537 -0.063041896 -0.003598583 0.06294551
0003a0 7d af 91 3d b4 85 21 3d f9 a3 ba 3c 5d 2a a5 3d
       0.0711355 0.03943415 0.022783266 0.08064721
0003b0 67 16 ee bc 11 dd a1 3d c8 ca 98 bd 63 fd 26 3c
       -0.029063417 0.07903493 -0.074605525 0.010192248
0003c0 86 59 71 bd 67 30 88 bc 65 c6 61 3d 81 04 9d bd
       -0.058923267 -0.016624643 0.055120844 -0.07666875
0003d0 f1 18 df bc fc a4 e1 bc f1 8b 70 bd 3c e9 2a 3d
       -0.027233573 -0.027544491 -0.05872721 0.041726336
0003e0 52 3b 46 bd 01 3f a1 3d db 2a a2 3c 86 28 7e 3d
       -0.048396416 0.07873345 0.019795826 0.062050365
0003f0 87 bf 28 bd fc 46 d3 bc f9 83 82 3d 71 ef a0 bd
       -0.04119828 -0.025790684 0.06372828 -0.0785817

discriminator.7.weight f4 [16]
000000 18 1f 7f 3f c4 f8 7f 3f c8 ee 7e 3f a9 e8 7c 3f
       0.9965682 0.9998896 0.995831 0.9879251
000010 cf 88 7f 3f 98 87 7d 3f 0d b2 81 3f 7b 35 80 3f
       0.9981813 0.99035025 1.0132462 1.0016321
000020 07 f4 7c 3f b1 18 80 3f e6 fd 7c 3f 72 24 80 3f
       0.98809856 1.0007535 0.9882492 1.0011122
000030 37 66 82 3f fc 4e 82 3f 73 15 80 3f 56 fa 7b 3f
       1.0187443 1.0180354 1.0006546 0.9842886

discriminator.7.bias f4 [16]
000000 4f e7 35 3c d2 ac da 3a ab 0c 81 3b 37 21 70 bc
       0.011102512 0.0016683585 0.0039382777 -0.014656357
000010 79 7d 49 3b 61 0a 70 3c 9e 33 77 3c 2f 75 95 3c
       0.0030744954 0.014650912 0.01508799 0.018244354
000020 af b2 92 bb b3 1d 73 3b 4e 6f 79 3c 5f 66 99 3c
       -0.004476867 0.003709656 0.015224291 0.018725572
000030 f7 35 98 3c 8d d8 98 3c a6 62 87 3c 9b a6 2a 3c
       0.01858042 0.018657947 0.016526531 0.010415698

discriminator.7.running_mean f4 [16]
000000 bc 22 07 3e ab fe e3 bd 54 64 d4 3a fd 22 4b bd
       0.13196844 -0.111325584 0.0016204217 -0.049593914
000010 42 dc 07 3e 8e 12 68 3e b4 bb 46 bd d3 11 75 3d
       0.13267615 0.22663328 -0.04851885 0.05983145
000020 e7 98 9a bd 46 b2 25 3e 00 fa ed 3d 69 fa 2c be
       -0.07548695 0.16181287 0.11619949 -0.16892399
000030 27 8a e7 bd 2c a0 8e bd c6 43 85 3c 8a 60 0f be
       -0.11305647 -0.06964144 0.016267668 -0.1400167

discriminator.7.running_var f4 [16]
000000 d3 0f 04 3e a2 0b e4 3d f7 8b 36 3e c5 e9 37 3e
       0.12896661 0.11135031 0.1782683 0.1796027
000010 ae 24 3d 3e fa 5f 09 3e 0f 24 3a 3e 9d de c4 3d
       0.18471023 0.13415518 0.18177818 0.096127726
000020 fc 5c b6 3d 83 6f e4 3d 50 0b 49 3e 41 c9 06 3e
       0.08904454 0.11154082 0.19633222 0.1316271
000030 c7 e6 0e 3e 1f d1 f8 3d d1 6d 20 3e e9 27 fc 3d
       0.13955222 0.12149262 0.15666892 0.123123

discriminator.9.weight f4 [32, 16, 4, 4]
000000 3e 54 85 bb 46 8e a4 3c 5f 0c eb 3c f2 fd 00 bd
       -0.0040688803 0.020087373 0.028692422 -0.03149218
000010 b3 61 7e bb 8a e2 78 bd b9 c1 d9 bc 96 ea 03 3d
       -0.0038815557 -0.06076292 -0.026581632 0.03220614
000020 53 cd 36 bd 3b 7e 08 3d 33 8d c4 bc bc a5 5f bd
       -0.044629406 0.033323508 -0.02399311 -0.054601416
000030 7c 17 9a 3d b5 89 41 bd f5 69 0e bd 3b d7 52 3c
       0.075240105 -0.04725047 -0.034769017 0.012868698
000040 6a 55 59 3d 13 e9 7c bd 25 a8 0f 3d 30 70 2f bd
       0.053059973 -0.061745714 0.035072464 -0.0428316
000050 0f c6 c0 3c 2d 99 de bb 4f 15 f2 3c 41 ab 90 3c
       0.023531942 -0.0067931623 0.029551176 0.017659785
000060 b6 83 34 3d 8c 04 5a bd 17 4d 44 bd 07 1a 22 3d
       0.04407092 -0.053226992 -0.04792508 0.039575603
000070 0c e5 f5 3a 11 f1 15 bd 92 2f 9c ba 9d c3 bf 3c
       0.0018760278 -0.036606852 -0.0011916033 0.023408705
000080 7e 2f e8 bc cf 4f 2c 3d c4 83 84 bd 9f 25 92 bc
       -0.028342959 0.0420683 -0.06470445 -0.017840205
000090 76 e0 30 3c 17 3e d5 3c a7 4d e6 bc 5b 14 03 3d
       0.010795703 0.026030583 -0.0281132 0.032001834
0000a0 36 80 73 3b 57 9f 6e bb 86 7a 0d 3c ba 86 06 bd
       0.0037155277 -0.0036410892 0.008635169 -0.03284333
0000b0 d3 66 de bc 16 7a f0 bc cf e6 1e 3d d2 42 33 3c
       -0.02714864 -0.02935509 0.038794335 0.010941224
0000c0 4c 73 2c 3d 51 fd fe 3c 42 30 30 bd d5 32 7d bd
       0.042102143 0.03112665 -0.043014772 -0.061816055
0000d0 77 35 d9 3c 68 8d 83 bd 90 02 5e 3c 2a bc bb bc
       0.026514752 -0.064234555 0.013550416 -0.022916872
0000e0 14 8b 82 3c 97 24 a6 bc 57 8f 8a bc f8 18 0e bc
       0.015935458 -0.02028112 -0.016914053 -0.008672945
0000f0 a5 42 59 bb 69 43 20 3c 6c 98 fb 3a 58 f0 ab bc
       -0.0033151296 0.009781697 0.0019195206 -0.020988628
000100 1d 01 12 bd ad 4b 2c bd 14 41 89 bd 71 15 09 bc
       -0.035645593 -0.042064358 -0.06701866 -0.008366928
000110 72 3e 65 bd 64 c7 6a bd b2 85 d2 3b 68 22 3a bd
       -0.055967756 -0.05731906 0.006424629 -0.04544297
000120 91 8b 8d bd dc 4c 3d bd 2e c8 d9 3a 79 e8 7a 3d
       -0.06911386 -0.046215877 0.0016615444 0.06125686
000130 21 c7 13 bb 86 a9 0f bd ec 9f 5f 3d f9 6d 9b 3c
       -0.002254911 -0.03507378 0.054595873 0.018973337
000140 22 a8 85 bc 1d aa fc bc 09 87 6c bd f3 f9 86 3c
       -0.016315524 -0.030842835 -0.057745967 0.016476607
000150 98 57 24 bd 00 f0 b8 3c 15 4e 37 3c dd d9 a0 3c
       -0.0401226 0.022575378 0.01118805 0.019635135
000160 25 e2 c0 3c a2 e8 a8 3c 94 54 12 3a 48 e4 4e 3d
       0.023545334 0.02061874 0.0005582061 0.050510675
000170 ba 4b 05 3d 2a 52 1d bc d3 41 89 3b 7c d6 e5 bc
       0.03254292 -0.009602109 0.004188755 -0.028056376
000180 c6 52 f3 bc bb 3d 4f 3c 9b c3 3f bd 89 d1 b2 3c
       -0.029702555 0.012648995 -0.046817403 0.02182843
000190 b6 cb dd bc 5f 8b a4 bc d1 a7 81 bc 48 f0 00 3d
       -0.027074676 -0.020085989 -0.015827091 0.03147915
0001a0 a8 7c 1b bd e7 0b d6 bb 04 94 fb bb a1 7d 90 3d
       -0.03796068 -0.0065321806 -0.007677557 0.07055212
0001b0 f7 de 7b bb 86 a1 53 bd 19 42 82 3c 53 62 15 3d
       -0.0038432458 -0.051667713 0.015900658 0.036470722
0001c0 4a 17 d7 bc 35 99 2e 3c f7 b3 74 3d 8c 60 45 3c
       -0.026256222 0.010656645 0.05974194 0.012046944
0001d0 7d c2 84 bc 91 73 21 3d 1a 71 08 bc 00 fd eb 3c
       -0.01620602 0.039416853 -0.008327747 0.028807163
0001e0 6a c3 96 bc 27 d5 5b bd a2 18 99 bb 5d 94 4a bd
       -0.018403728 -0.053670075 -0.004672126 -0.049457897
0001f0 d0 c3 66 bb a3 d1 0d bd 07 fc d3 3c 42 79 33 bd
       -0.0035211928 -0.034623753 0.025877012 -0.043816812
000200 85 20 82 bd 92 73 f9 bc 0e c9 bd bc 2b b8 ba bc
       -0.06353859 -0.030450616 -0.02316716 -0.022792896
000210 16 4d 6c 3c b9 15 a7 3b 47 f9 79 bd f8 64 63 bd
       0.014422676 0.005099025 -0.061028745 -0.055516213
000220 44 b5 1d bd 58 b4 62 bd 24 47 80 3d 7e e6 19 bd
       -0.038502946 -0.05534777 0.06263569 -0.03757333
000230 17 b2 df bc 32 c7 d9 3a 57 63 b0 bb a1 18 52 3c
       -0.0273066 0.0016615151 -0.005382936 0.012823255
000240 33 88 ca 3c 85 8d d8 bb 7c 97 30 bd f4 66 23 bd
       0.024723148 -0.0066086673 -0.043113217 -0.039893106
000250 c4 ad 6a 3d 3f 2c cd 3c f6 a1 20 3d 53 7a 42 3d
       0.057294622 0.025045512 0.039216958 0.04747994
000260 50 3f 53 3d 6f 51 20 3d 37 d1 d3 bb 5b c3 17 bd
       0.05157405 0.03914016 -0.0064641493 -0.03705154
000270 d8 3c 69 bd c3 a5 6b 3d 2d 29 0f 3b 0a 8f dd 3c
       -0.05694279 0.05753113 0.002184461 0.027045745
000280 b2 bd 16 3a ff 63 0c 3c 00 7b 2d bd 7e 3f 18 3d
       0.00057503127 0.008568763 -0.04235363 0.037169926
000290 27 57 0c 3d bb 3d c4 ba fe b4 ff 3c c0 ca a9 bc
       0.034262802 -0.001497201 0.031214233 -0.020726562
0002a0 a1 0a 2a 3d 80 65 d3 3c c3 5a 0a 3d 9a 53 d8 b9
       0.041514043 0.025805235 0.033777963 -0.00041261018
0002b0 44 b3 87 bc 35 91 bd 3b d7 a7 93 3d 2a 98 9b bc
       -0.016564973 0.0057851323 0.07209747 -0.018993456
0002c0 19 32 92 bd c2 20 db bc d7 ed 90 bd c3 4d 1a 3d
       -0.071384616 -0.026749019 -0.07076614 0.037671816
0002d0 27 6e 4f bc 00 9d 2b bd 87 78 79 bd 96 f7 f9 bc
       -0.01266054 -0.041897774 -0.06090596 -0.030513566
0002e0 7b 26 15 bd 85 87 d4 bb 0e eb 80 3c 7d 4c 36 bd
       -0.03641365 -0.0064858817 0.015737083 -0.04450654
0002f0 7f 68 5c 3d 63 35 43 3d 5b 9e 39 bc b7 3c 77 bd
       0.053810593 0.047658335 -0.011329259 -0.060360637
000300 70 93 8e bc 54 49 bf 3c 47 1d 8c bc 40 13 2f 3d
       -0.017404288 0.023350395 -0.017103804 0.042742968
000310 6d 73 86 bd 29 42 ef bc a9 b5 23 bd 79 2c 65 bd
       -0.065649845 -0.029206352 -0.039968167 -0.055950616
000320 a8 7c 55 bb 0d 6a 08 3c 1e 12 6a bc d3 54 81 3a
       -0.0032575522 0.008326066 -0.014286546 0.0009867199
000330 2f ae e5 3c 60 c8 01 3d ef 91 f8 3c df 45 8c 3c
       0.028037159 0.031685233 0.030343024 0.01712316
000340 39 83 4a bd a0 fe 77 bd ef 7a 0b 3d 85 49 69 bc
       -0.04944155 -0.060545564 0.034052785 -0.01423872
000350 67 33 28 3d 11 e3 28 3d 10 93 8e bc 7f ff 20 bd
       0.041064646 0.041232172 -0.01740411 -0.03930616
000360 ed 97 18 bd c1 86 8e bb 1a 32 8f bc 9b ba 2e 3c
       -0.037254263 -0.00434956 -0.017479945 0.010664607
000370 2e d5 90 3d d1 f7 d5 bc 1e 59 2c 3d fa 22 7b bc
       0.07071911 -0.026119145 0.042077176 -0.015328163
000380 4c 70 b6 bc 74 de 91 bd ce e3 44 3c 54 ee 48 bd
       -0.022270344 -0.07122508 0.0120172035 -0.049055412
000390 1f 74 78 3d 5f 01 8a 3c 7a 78 70 3d 71 97 2c 3c
       0.060657617 0.016846357 0.058708645 0.010534153
0003a0 de c1 36 bd 84 6b 1b 3d 7e c4 a2 bc 6c 8c 49 3d
       -0.04461848 0.03794433 -0.019869085 0.049206182
0003b0 b4 12 c6 bc ab ca 8d 3a 4d cd 7e bd dd 83 54 bd
       -0.02417884 0.0010817846 -0.06220751 -0.051883567
0003c0 f9 7e 8e 3c ad 5f eb bc 2e 11 82 3c bd e4 51 ba
       0.01739453 -0.028732145 0.015877333 -0.0008006802
0003d0 2b ea 29 3d a2 c0 a6 3c 5b db 9b bc e0 b8 ba bc
       0.041483086 0.020355526 -0.019025495 -0.022793233
0003e0 fe 12 2b 3c a9 88 08 3d 13 a4 ee bc 5d 98 e4 3b
       0.01044154 0.033333454 -0.029130971 0.006976171
0003f0 60 11 d4 3c 20 a8 fc 3b db 4b ff bc 91 07 56 3b
       0.025887191 0.0077104717 -0.0311641 0.0032658319

discriminator.10.weight f4 [32]
000000 fa df 7e 3f fb 73 7d 3f 78 b0 80 3f 14 ba 7d 3f
       0.9956051 0.990051 1.0053854 0.9911206
000010 60 fd 7c 3f a7 0a 80 3f 36 a7 7f 3f 2f 18 7f 3f
       0.9882412 1.0003251 0.9986452 0.99646276
000020 8b d0 81 3f 4a 85 80 3f 17 79 81 3f 00 a7 81 3f
       1.0141767 1.0040677 1.0115079 1.0129089
000030 29 2d 7e 3f c0 49 7d 3f 8c c6 81 3f c6 42 81 3f
       0.9928766 0.9894066 1.0138717 1.0098503
000040 55 2f 80 3f 9c 4d 81 3f bf 9d 7c 3f e1 6f 7c 3f
       1.0014445 1.010181 0.986782 0.98608214
000050 b5 3c 80 3f 65 35 82 3f d3 9e 81 3f 79 f5 80 3f
       1.0018526 1.0172545 1.0126594 1.0074912
000060 5a 0e 7e 3f 62 01 82 3f c6 bc 7d 3f a3 e0 80 3f
       0.9924065 1.0156672 0.9911617 1.0068554
000070 92 c5 81 3f 97 5d 80 3f 9a a3 7f 3f 9b 5d 81 3f
       1.0138419 1.0028561 0.9985901 1.0106691

discriminator.10.bias f4 [32]
000000 57 f8 58 bc 86 7b 57 bc 1f 2a ed 3b 5c fd 5d 3c
       -0.013242803 -0.013152009 0.0072376872 0.013549175
000010 c3 57 30 bb f2 f0 ae ba 46 2d 3f 3c 71 dd 8c 3b
       -0.0026907779 -0.0013346954 0.011668509 0.004298859
000020 72 49 90 3c ef 11 46 3c ab ad 7f 3c 35 fe 8a 3c
       0.017613146 0.012089237 0.0156053705 0.016966918
000030 f2 51 51 3c bd ae 54 bc 00 f3 6d 3c fb fb 7c 3c
       0.012775885 -0.012981114 0.014523268 0.015440936
000040 61 ba 1f 3c 1f 1d 6e 3c 6c ce 0b bc d3 21 3f bc
       0.009749026 0.01453331 -0.0085331015 -0.011665779
000050 67 47 f8 3b 5d d6 2c 3c db 2f 4b 3b 21 18 45 3c
       0.007576871 0.010549155 0.0031003866 0.012029679
000060 65 41 2b bc b1 ac 92 3c 23 44 38 3b 9e 24 56 3c
       -0.010452603 0.017904611 0.0028116785 0.013070254
000070 6d b3 82 3c 73 63 6b 3c b1 12 f9 3b be df 7f 3c
       0.015954698 0.014366972 0.007601105 0.015617309

discriminator.10.running_mean f4 [32]
000000 32 59 96 be 18 07 9b bd 6d af 83 3e 16 cb 64 3c
       -0.29364926 -0.075697124 0.25719777 0.013964435
000010 56 98 17 bc f7 4e 06 bd c1 18 39 bd 4e 9f 12 3e
       -0.009252628 -0.03279015 -0.045189623 0.14318582
000020 ab d1 40 3d 14 0d 77 ba 5a 63 eb 3d f6 5a f3 bd
       0.047074955 -0.0009424251 0.11493559 -0.11882584
000030 52 2a 37 3d 71 f6 15 3e 89 49 f0 3e 4a ae 8a 3d
       0.044718094 0.14644791 0.46931103 0.06771524
000040 ca 9b 82 be bd ff 21 3e 74 cf 44 be af f7 0f 3e
       -0.25509483 0.15820213 -0.19219762 0.14059328
000050 cb be 85 3e ae 8b 1a be 63 79 6b be 6a 60 2b bd
       0.26122126 -0.15092346 -0.22995524 -0.041839994
000060 61 93 43 3e ef f7 9d 3c db f8 c6 3d ba 83 53 bd
       0.1909919 0.019283263 0.09715434 -0.051639296
000070 7a 0c 2f bc e5 d9 13 be 9d ae 9d bd 7a 37 2e 3e
       -0.010684127 -0.14438589 -0.076993205 0.1701335

discriminator.10.running_var f4 [32]
000000 e8 55 46 3e 0b 24 06 3e b2 15 fb 3d 74 cb 05 3e
       0.19368708 0.13099687 0.122599974 0.13065892
000010 94 8f 00 3e e9 9b 07 3e 43 95 f1 3d 1d 29 12 3e
       0.1255477 0.13243069 0.117960475 0.14273496
000020 4c 0b 00 3e c2 35 f6 3d ce 09 07 3e ed 4a 0d 3e
       0.1250431 0.12021972 0.13187334 0.13798113
000030 67 5d fd 3d e0 20 08 3e b1 2d 92 3e e0 f1 47 3e
       0.12371331 0.13293791 0.28550485 0.19525862
000040 73 31 d0 3d 08 de 10 3e 02 b3 10 3e 15 7c 43 3e
       0.10165682 0.14147198 0.14130786 0.19090302
000050 73 39 28 3e 0c eb 18 3e b0 e5 4a 3e e0 3e 1e 3e
       0.16428165 0.14933413 0.19814181 0.15453672
000060 ad 3e 08 3e 34 ce e0 3d 5e 25 1a 3e ef bb 0f 3e
       0.13305159 0.1097683 0.15053317 0.14036535
000070 a4 fd 15 3e d9 aa 1e 3e 11 20 0a 3e 32 7d e6 3d
       0.14647537 0.1549486 0.13488795 0.11254348

discriminator.12.weight f4 [1, 32, 4, 4]
000000 07 27 08 bc 65 6d 24 bd db d5 52 bd 13 4a 81 3a
       -0.008310086 -0.04014339 -0.05147348 0.0009863995
000010 ee 37 ba 3c 7f ce 24 3d ae 62 89 3c 71 36 dc 3c
       0.022731747 0.040235993 0.016770687 0.026881428
000020 04 94 bd bc f7 0e 81 3c e5 a0 86 3c 95 ee 9a 3c
       -0.023141868 0.015754206 0.016434142 0.018912593
000030 4c 61 e1 3b 35 01 80 3c 34 5a 1f bd 7e 83 d3 3c
       0.006878054 0.015625576 -0.038904384 0.025819536
000040 64 5d 04 3d 64 ab 98 3c c0 41 b0 3c c9 5b e9 bb
       0.032315627 0.018636413 0.021515727 -0.0071215373
000050 c6 50 97 bc 6f 36 e3 bc 10 e9 26 3a 82 00 e4 3c
       -0.018471133 -0.027735917 0.00063671265 0.027832273
000060 8c ce 0e bd e2 1c f0 3c b3 dc f7 3c 01 64 3e bb
       -0.034864947 0.029310647 0.030256605 -0.0029051306
000070 66 14 8c 3c 50 fe 05 3d 42 88 89 3c 3e ba f7 3c
       0.01709957 0.032713234 0.016788606 0.030240174
000080 57 46 fa bb ad ee 84 bc a9 f2 2b bc e3 57 33 3d
       -0.0076377797 -0.01622709 -0.010494866 0.043784987
000090 72 07 26 bd c1 26 ee bc 34 c9 4f bd 8d 90 f4 3c
       -0.040534444 -0.029071214 -0.05072899 0.029854083
0000a0 cb 3a b9 bb 8a 23 78 3c 58 ec bb bb 52 34 fd 3c
       -0.0056527606 0.015145192 -0.0057349615 0.030908737
0000b0 a4 1c 06 3b 0d 43 eb 3c 01 4e a8 bc 47 4f 2e 3c
       0.0020463848 0.028718496 -0.020545008 0.010639018
0000c0 a0 f2 a7 3c 67 da 74 bc dc ce 48 bd 12 71 52 3c
       0.020501435 -0.014944649 -0.0490254 0.012844341
0000d0 1f 6a 09 3d 3d bd 0c bd c9 24 c8 bc f1 73 49 bd
       0.03354847 -0.03436016 -0.024431603 -0.049182836
0000e0 86 87 bc bc e7 64 2b bd fa 81 75 bc 68 40 e6 3c
       -0.023013841 -0.041844275 -0.014984602 0.028106883
0000f0 a2 6e bc bc 4d 7b 18 bb 61 28 22 bc 78 db d5 bc
       -0.023001973 -0.0023266852 -0.009897322 -0.026105627
000100 ff 9e 7c 3c 86 66 db bb 2c c9 d6 bc 18 02 20 3c
       0.015418767 -0.0066955714 -0.026218973 0.009766124
000110 ee a5 11 3b 71 10 0b bd ea 15 1f bc 69 8f 00 bd
       0.0022224146 -0.033951227 -0.009709815 -0.031386767
000120 91 51 fc 3c 01 1d d4 bc 35 ef cf bc f3 0b 08 3d
       0.030800613 -0.025892736 -0.025382617 0.03321452
000130 c0 b2 9d bb 9c 9d b3 3c 4e c0 2a bb 00 a9 15 bd
       -0.0048125684 0.02192574 -0.0026054564 -0.036538124
000140 1e 32 fd bc 79 f7 68 3a 6f c4 bc 3c 19 3a 9c bb
       -0.030907687 0.0008886974 0.023042886 -0.004767668
000150 46 a1 21 bd 88 39 34 bd d0 bf 0d 3d a1 ec 30 3d
       -0.039460443 -0.04400018 0.034606755 0.043194417
000160 db ce 8f 3c 0f 91 62 3b 1c 59 0e 3c bc 6b ff 3c
       0.017554691 0.0034571325 0.0086882375 0.031179301
000170 b6 73 ef bc c6 25 25 bd 1b 55 95 3c 30 21 ef bc
       -0.02922998 -0.040319227 0.018229058 -0.02919063
000180 46 ee 48 39 21 20 02 bd 7e 19 52 bd 0b 70 c8 3b
       0.0001916225 -0.03176892 -0.051293842 0.006116872
000190 96 61 0c 3c e8 06 bf 3b 54 a1 ff ba 9b d8 18 bd
       0.008568188 0.0058296807 -0.0019503036 -0.037315946
0001a0 57 9b 15 3c 4b 26 a6 bc 0e 4d a4 bc 4b f2 e6 3c
       0.009131274 -0.020281931 -0.020056274 0.028191706
0001b0 47 fe 11 3d 76 d8 a8 3c 10 33 29 3c 92 02 0a bd
       0.03564289 0.02061103 0.010327116 -0.033693857
0001c0 1b b1 7d 3c 52 86 f4 bc 05 a3 e3 3c 42 9d a8 3c
       0.01548412 -0.029849205 0.027787695 0.020582799
0001d0 2d 75 47 bd 36 99 e5 bb 57 8b 0b 3d b0 b3 10 3d
       -0.048695732 -0.0070067896 0.03406843 0.035327613
0001e0 cd b0 8e 3c 07 56 44 bc 34 28 83 ba ec 5b 86 3c
       0.01741829 -0.011983401 -0.0010006488 0.016401254
0001f0 60 48 2a bc b8 0a b8 3c e9 29 2f bd dc 4a 1f bd
       -0.010393232 0.022466049 -0.042764578 -0.03888975
000200 d2 57 3b bd e9 64 13 3b 66 de 2d bd fb 59 d0 3b
       -0.04573805 0.0022490567 -0.042448424 0.0063583828
000210 ea 00 a1 bc 31 1e 24 bd af 0d 51 bd f7 4e ed bb
       -0.019653756 -0.040067855 -0.05103844 -0.0072420794
000220 76 2d 1d bd 35 90 b0 bc 00 a6 30 3c 2d b1 30 bc
       -0.038373433 -0.021553138 0.010781765 -0.0107844295
000230 03 f6 4e 3c c5 b9 42 bd c6 6d 2b 3d 18 37 14 3d
       0.012631896 -0.047540445 0.041852735 0.036185354
000240 d0 d7 8e bc b1 3d 64 bd ba 36 e7 3b 02 50 99 3c
       -0.017436892 -0.055722896 0.0070560845 0.018714909
000250 10 30 57 bd b3 a5 16 3c 88 e6 d4 3c 3f d8 df bb
       -0.05253607 0.009194779 0.025988832 -0.0068311985
000260 c4 37 d5 ba 90 8a 33 bc 56 29 c2 bc 05 c5 16 3c
       -0.001626723 -0.010958329 -0.023701351 0.009202247
000270 d9 c8 d3 bc e8 35 02 bd ab 9f 00 bd 56 b9 e9 3c
       -0.025852608 -0.03178969 -0.03140227 0.028530758
000280 63 04 1a bc c9 35 35 bc 75 63 6c bc 51 29 46 bd
       -0.00940046 -0.011060187 -0.014428009 -0.048379246
000290 6e 24 47 bd 95 24 ba bc 44 34 96 bc 23 ea 3d 3c
       -0.048618726 -0.022722522 -0.018335469 0.011591467
0002a0 a3 15 07 3d d0 0b 2f bd f3 d8 c8 3c 97 6c 45 3c
       0.03297962 -0.042735875 0.024517512 0.012049816
0002b0 fe 03 4b bd d1 5a 25 bc f9 34 db bb c3 e1 87 3c
       -0.049564354 -0.010092453 -0.0066896644 0.016587144
0002c0 4c cd e4 3c 24 8d cd bc d9 2f b9 3b 02 02 64 3d
       0.027929924 -0.025091715 0.005651456 0.055665977
0002d0 b5 59 b8 3c b1 4a 4b 3a e1 d5 03 3a c0 59 92 bc
       0.022503713 0.00077549653 0.0005029124 -0.017865062
0002e0 db bb b4 bc 0e 59 9d 3a c0 4e bf 3c 38 d4 d8 bc
       -0.022062233 0.001200469 0.02335298 -0.026468381
0002f0 bd ec ca bb 24 1a 4e bd f8 99 4e bc 46 5c 3a bd
       -0.006192772 -0.0503179 -0.012609951 -0.045498155
000300 43 bb 3e 3c 69 20 26 bd 80 c8 05 bd 54 5f 1c bd
       0.011641326 -0.040558252 -0.032661915 -0.03817685
000310 db 51 5b 3c b2 79 81 3b 3b 4c b9 bb c0 77 19 bd
       0.013386215 0.003951275 -0.0056548393 -0.037467718
000320 65 79 7e 3c 88 ce e6 3b e0 d0 2b 3b 36 1a cd bc
       0.015531872 0.0070436634 0.0026217028 -0.025036912
000330 fd fd d9 bc 6c d5 97 3a 4a d7 68 3c ae dc 33 bd
       -0.026610369 0.001158399 0.014211485 -0.04391163
000340 ca 00 21 3d 79 35 33 bd bc 5e 08 3c 96 93 28 3c
       0.039307393 -0.043752167 0.008323368 0.0102890935
000350 a6 98 1a 3b 17 ef eb 3c 9a 76 38 ba a3 cf 3b 3d
       0.002358952 0.02880053 -0.0007036716 0.045852315
000360 e5 b4 73 ba 0c 52 0d bd 86 e0 d6 3c 8d 58 e5 3b
       -0.000929667 -0.034502074 0.026230108 0.0069990815
000370 17 75 20 bc b7 2b c3 3b d0 88 27 bd 5e a1 fc bc
       -0.009793541 0.005956139 -0.04090196 -0.030838665
000380 0f a2 aa bb f7 99 8f 3c a5 f2 47 bc e1 e2 3c 3b
       -0.005207307 0.01752947 -0.012203847 0.0028821754
000390 2c 10 0d 3c 91 71 31 bd 3a 88 d9 bc db 05 35 bd
       0.008609813 -0.043321196 -0.026554216 -0.044195037
0003a0 c0 18 05 3c ea 6d 91 bc 12 77 cd bc 5d 61 15 bd
       0.008123577 -0.017752606 -0.025081191 -0.036469806
0003b0 21 e3 e5 3c 04 5c ef bb 4c 82 12 bd 8e e5 67 bb
       0.028062405 -0.0073046703 -0.035768792 -0.0035384628
0003c0 22 5b 66 bb 07 77 1d bd 70 9b 90 bb 82 04 16 bd
       -0.0035149534 -0.03844359 -0.004413061 -0.036625393
0003d0 46 8e cc 3c 90 f0 65 3c f4 67 5f bd b0 d8 02 bd
       0.024970185 0.014034405 -0.054542497 -0.03194493
0003e0 01 d7 d4 bb 6f ea aa bb 30 5c 61 bb 7e ab b1 bc
       -0.006495357 -0.005215935 -0.0034387223 -0.02168822
0003f0 33 8b b8 3b 20 e8 45 3c e4 9d 3c bd f7 e7 b0 3c
       0.005631828 0.012079269 -0.046049014 0.021594984
